1/b_ludo_q_network.pth (torch, 11608 bytes, 4 tensors)

fc1.weight f4 [64, 32]
000000 c0 2a fe bc bc 40 cd 3d e7 cb 0c 3d 1a 0d 2b be
       -0.031026244 0.10022113 0.034374144 -0.16704217
000010 68 44 af 3d db 35 0d be 7a 84 0e be 05 ca 1e be
       0.08557969 -0.13790075 -0.13917723 -0.15506752
000020 e1 e3 26 3e f9 0d f4 bd 26 4b 18 be f9 ec 17 3e
       0.16297866 -0.119167276 -0.14872417 0.14836492
000030 20 b4 ed 3d 37 8a fc bc 80 d3 b2 3d cb 0a 07 3e
       0.11606622 -0.030827625 0.08731747 0.13187711
000040 43 9d 17 be ea 64 ac bd d8 f0 87 3c 17 4e 58 3d
       -0.14806084 -0.08417685 0.016594335 0.052808847
000050 d5 97 3c bd e8 d4 ee 3d 3d f1 26 be f0 c5 4f bc
       -0.046043236 0.116617024 -0.16302963 -0.012681469
000060 a8 a2 1c be 4b ea 6d 3d 59 38 b8 bd 40 1c cf bc
       -0.15296423 0.058084767 -0.089951225 -0.025282025
000070 68 67 b6 3d 2f 6f 26 be 98 92 a7 3c d8 55 fc bc
       0.08906442 -0.1625335 0.020455644 -0.030802652
000080 79 d7 77 bc c9 50 56 bd 8b fe 85 3c 0a 3a f2 bb
       -0.015127056 -0.052323136 0.016356727 -0.0073921727
000090 8f 55 b0 bc 2d 25 27 be eb 03 d4 bd e6 89 3c be
       -0.021525173 -0.16322775 -0.1035231 -0.18411979
0000a0 85 9a dc 3d 19 d8 c6 bd 63 d3 a5 3d 28 d0 a2 bd
       0.1077166 -0.09709186 0.080969594 -0.07949859
0000b0 ce f2 69 3d 86 42 aa bd f8 76 61 3d 5f 03 06 be
       0.057116322 -0.083134696 0.055045098 -0.13087223
0000c0 4b 32 d8 bd 3c 64 07 bd c1 df af 3d 32 4e 62 bd
       -0.105564676 -0.033054575 0.085875995 -0.055250354
0000d0 a5 ad 86 bd bc 5c d2 3d c4 c4 36 3d ec 50 0a 3e
       -0.06576089 0.10271594 0.044621244 0.13507432
0000e0 0b 94 af bd 1b 57 83 3c a5 f7 48 be 45 e0 0f be
       -0.08573159 0.016032746 -0.19625719 -0.14050396
0000f0 67 21 d2 bd e8 bd f8 3c f3 3c 67 3d ff 7a d7 bd
       -0.10260277 0.030363992 0.05645461 -0.105215065
000100 74 70 98 3d b8 6a 19 be b7 33 ad 3d 70 a8 c1 3d
       0.07443324 -0.14982116 0.084571294 0.09455955
000110 67 8d 30 3d 2a 6c 3a 3d 79 bb e8 bd 43 6c 29 3e
       0.0431036 0.04551331 -0.113638826 0.16545205
000120 86 aa 91 3d e9 cc 3f bd 1c 4b f5 bd ac dd e9 bd
       0.07112603 -0.046826277 -0.119772166 -0.11419234
000130 a0 42 91 3c d6 20 92 3d 9d 2d fb 3d 00 28 0d be
       0.017731965 0.07135169 0.122645594 -0.1378479
000140 d1 94 3c bd 58 14 23 be 99 46 04 3c da 0a e9 bd
       -0.04604036 -0.1592573 0.008073472 -0.11379023
000150 16 a4 0b 3e 26 90 19 3e 04 c9 bd bd 2f f1 10 3e
       0.13636813 0.14996395 -0.09266856 0.14154504
000160 f3 29 18 3e 9c 9e 1b 3e b4 b3 ed bd 11 42 79 3d
       0.14859752 0.15197223 -0.11606541 0.06085402
000170 77 af 73 3c a6 63 14 be 91 15 b1 bc 8a 45 62 3d
       0.014873377 -0.14491138 -0.021616729 0.0552421
000180 c5 63 27 be 68 49 c1 bd 82 23 10 be 45 e2 af bb
       -0.16346653 -0.09437829 -0.14076045 -0.0053675496
000190 05 82 10 be 0d 13 1f be 45 81 01 3e 23 23 d6 bd
       -0.14112099 -0.15534611 0.12646969 -0.104559205
0001a0 3c 6e 10 3e 1c 72 9a 3d 51 ef d2 3d 4e c2 4b be
       0.14104551 0.07541296 0.10299552 -0.1989834
0001b0 68 96 1d 3d dc c7 fc 3d 13 3b a0 bd 77 76 84 bd
       0.038473517 0.12342808 -0.078237675 -0.06467908
0001c0 7b 9b 83 bb 1a 34 1b 3e 4d d1 54 3d 97 3a a2 bd
       -0.0040163375 0.15156594 0.051957417 -0.079213314
0001d0 af 5c a7 3d 22 b8 96 bd 19 8a fe bc e7 87 87 3d
       0.08171975 -0.07359339 -0.03107171 0.06617718
0001e0 76 e4 65 3c 32 ad b7 3c f8 88 67 bd 92 11 d4 bd
       0.01403152 0.022421453 -0.056527108 -0.10354914
0001f0 6f 77 52 bb 34 92 19 be c0 a1 8f bd d7 72 8b 3b
       -0.0032114645 -0.14997178 -0.07013273 0.0042556333
000200 f4 c4 1d 3e f4 84 3e 3d e7 f1 b2 bd 48 01 0e be
       0.15407163 0.046513513 -0.087375455 -0.13867676
000210 fc e3 5a bd 43 fa 13 be cc c6 87 bd ea bb 9e bd
       -0.05344008 -0.14450936 -0.06629714 -0.077506855
000220 db 1c 8b 3d 9d 95 b7 bd 3b d2 af 3d ac 97 e2 3c
       0.06792613 -0.08964083 0.0858502 0.027660213
000230 76 f1 01 3e 56 4b 01 bd 2f da 88 3d 49 1d 12 3c
       0.12689766 -0.031565987 0.0668224 0.008918115
000240 b9 55 dc bd 3b b9 93 3d 0d ac 87 bb d1 b6 97 bd
       -0.10758538 0.07213064 -0.004140383 -0.07407916
000250 fe 3a c8 bd 8f d9 f6 bd 27 bf 87 bd 0d 27 b5 bb
       -0.09776877 -0.12053215 -0.06628256 -0.005528337
000260 38 a4 02 be 5c e9 c3 3c cf 68 b1 3d 87 34 e9 3d
       -0.12757957 0.023914985 0.08662569 0.11386972
000270 a3 02 2a be 6c 59 8b 3c a7 38 e7 3d 46 6c cd bd
       -0.16602568 0.017010413 0.112901025 -0.10030417
000280 7a d1 0c be 4d 61 94 bd 14 a3 60 3d e6 33 cb 3d
       -0.13751784 -0.07245121 0.054843023 0.09922008
000290 e7 6a 30 3e aa 83 e1 bd c0 ce 60 3b ad 9b 29 be
       0.1722828 -0.11011441 0.003430292 -0.16563292
0002a0 9c bb 9b bd 60 27 ae 3b a4 f9 d5 bd 5e 2a 97 3d
       -0.07604143 0.0053147525 -0.10448006 0.07381128
0002b0 b1 9e 1f 3e ae ad c2 bd 17 d8 b0 bd eb d9 0b 3e
       0.1558788 -0.09505783 -0.08634966 0.13657348
0002c0 67 0e cf bd f9 18 17 be 58 5f b8 3c 26 38 ca bd
       -0.10110169 -0.1475562 0.022506401 -0.09873991
0002d0 e0 c9 0c be 0e 8a 12 be 50 c3 a6 bc e0 b0 e1 bd
       -0.13748884 -0.14310476 -0.020356804 -0.11020064
0002e0 20 e1 a8 bd d8 e8 2c be b2 09 24 be c2 bc c1 bd
       -0.08246064 -0.16885698 -0.16019323 -0.09459831
0002f0 18 6a 14 be 90 b2 1b bd c6 a0 c4 3d 13 96 17 3e
       -0.14493597 -0.038012087 0.096009776 0.14803343
000300 3a 51 c8 bd 1c 1d 21 3e 46 3f 06 bd a5 ee f6 bc
       -0.09781118 0.1573376 -0.032775186 -0.030143091
000310 9d 01 ce bc a8 a2 dc 3d b6 c7 de 3d 1c 27 60 3d
       -0.025147254 0.10773212 0.108779356 0.054724798
000320 39 b1 ff 3d c8 dd 13 3e f6 09 eb 3d 89 10 68 3d
       0.124849744 0.14440072 0.11476509 0.056656394
000330 79 27 29 3e 89 37 04 be 27 cd 4b 3d ca 52 58 3d
       0.16518964 -0.1291181 0.049756195 0.05281333
000340 cb 41 23 3e e7 f9 52 3d 3b cd 15 be ae 04 0a 3e
       0.15943067 0.051507857 -0.1462907 0.13478348
000350 87 b4 19 3e 8d 61 b6 3c 32 b1 04 be e2 0c 25 be
       0.15010272 0.022263313 -0.1295822 -0.16118196
000360 a0 0f fe bd 1d cf 13 3c da 29 ea bc b3 68 1b 3e
       -0.12405324 0.009021548 -0.02858441 0.15176658
000370 71 16 44 3e f9 74 0e be 30 39 02 3e 60 ca 1d 3c
       0.19149186 -0.13911809 0.12717128 0.0096307695
000380 d7 b8 dc bd 55 c5 b7 bd c6 27 28 bd 63 f2 e0 bc
       -0.10777443 -0.08973185 -0.041053556 -0.027459329
000390 23 fa cd bd 2a 84 97 bc 0a 68 40 3d a8 bb 4c 3d
       -0.100574754 -0.018495638 0.04697422 0.04998365
0003a0 10 bd b9 3c 5a d5 38 3d 3c 6c c7 3d 17 50 18 be
       0.02267316 0.045125343 0.09737441 -0.14874302
0003b0 64 2a 05 be 61 c1 5a bc 4d 51 dd bd 30 79 1a 3e
       -0.13004452 -0.013351769 -0.108065225 0.15085292
0003c0 27 e7 94 3d d0 56 ac 3d ef e0 81 3c 14 d1 93 3d
       0.07270651 0.08414996 0.015854327 0.07217613
0003d0 78 76 e2 3d 50 49 46 be 77 a9 95 bd ee 4b 41 be
       0.11057752 -0.19363904 -0.073077135 -0.18876621
0003e0 ec 1f 87 3d 79 ba 20 bb 98 9c 1c 3e 6b 45 13 be
       0.065978855 -0.002452521 0.15294111 -0.1438195
0003f0 64 0a a7 3d a3 7a c1 bd e2 e2 2a bd 1b ee 1a 3e
       0.08156279 -0.09447219 -0.04172028 0.15129893

fc1.bias f4 [64]
000000 53 eb 90 bd fe ce ed 3d 9b 1a 02 be 75 40 e7 bd
       -0.070761345 0.11611746 -0.12705462 -0.11291591
000010 1f ac 05 be 70 71 cc bc 87 6a 90 3d cb ae 03 3e
       -0.1305394 -0.024956435 0.070515685 0.12859647
000020 49 aa 15 be 82 dd b5 3d 6a f5 d0 bd 1f db 67 b9
       -0.1461574 0.0888014 -0.10203059 -0.00022111506
000030 59 2e 5f 3d 81 e4 04 3c bb 70 a9 bd d3 c8 d9 3d
       0.05448756 0.00811112 -0.08273455 0.10634007
000040 df 39 29 bd c0 1c 35 bb 0a a6 08 be 17 b2 08 3c
       -0.041314956 -0.0027635545 -0.13344589 0.008343241
000050 bc ce 15 3c 7c 0c af bd 34 8c 2d 3d 02 49 98 3d
       0.009143528 -0.08547303 0.042370036 0.074358
000060 02 92 8b bd 9c cb 04 3d c9 8e 05 3e e2 c0 e8 3d
       -0.06814958 0.03242074 0.1304275 0.113649145
000070 ba 20 43 3b d5 7e 5f 3d 7c 11 0d be c0 d9 7d bd
       0.0029774145 0.054564316 -0.13776201 -0.06197524
000080 8d 51 3b 3e ce cc 77 3d 11 11 a1 bd 90 02 52 3d
       0.18292828 0.06049805 -0.07864583 0.051271975
000090 c3 52 fa 3d d6 3c 33 be 2d ae df 3d ac 74 fd 3c
       0.12222817 -0.17503676 0.10921893 0.030939423
0000a0 39 91 a7 bd 57 06 0e 3e e1 05 13 3e 90 5b e3 3c
       -0.08181996 0.13869606 0.14357711 0.027753621
0000b0 fc 9b 7e 3c fe 50 f9 bd a3 16 cb 3d 32 71 89 3d
       0.015540119 -0.12173651 0.09916427 0.067110434
0000c0 96 ca a2 3d 30 a6 9b bc 55 34 c6 3d cc 2a 4b bd
       0.079487965 -0.019000143 0.0967795 -0.04960136
0000d0 db 04 10 bc a4 d1 e5 3d c8 dd b6 bd e5 35 41 3e
       -0.00879022 0.112216264 -0.0892902 0.18868215
0000e0 61 61 2d 3e b2 0a 12 3e 00 c9 64 3b e8 e6 ac bd
       0.16931678 0.14261892 0.0034909844 -0.08442479
0000f0 54 60 2b be e9 c6 ba bd c5 d5 e7 bd 5c e9 0b be
       -0.16735965 -0.0911997 -0.1132007 -0.13663238

fc2.weight f4 [4, 64]
000000 f0 0b de 3d c7 4d 6a 3d a4 2a f3 3c 31 8a 9d 3d
       0.10842121 0.05720308 0.029683419 0.076923735
000010 1a 59 91 3d a4 71 ff 3d df 99 4a 3c 05 17 a2 3d
       0.07097073 0.12472847 0.012365787 0.07914547
000020 6b cc 19 bd a4 d5 dd bd 43 c8 e7 bd 9c 3b 11 3c
       -0.037548464 -0.10831764 -0.11317494 0.00886431
000030 f8 b3 69 3a d7 68 8f 3c bf ae 02 3e d5 1b 46 bd
       0.0008915062 0.017506046 0.12761973 -0.048366386
000040 33 c3 b8 bd 2e c8 8e 3d 8a b7 1a 3d d3 a6 c0 3d
       -0.09021606 0.06971775 0.037772693 0.09406819
000050 3a b4 bb 3b 00 8b ab bc 34 2f b9 3d 40 f9 b0 bc
       0.005728272 -0.020940304 0.090422064 -0.021603227
000060 f0 5b b5 bd 35 ea 55 bd 1e cc fb 3d 84 83 4b bd
       -0.08855426 -0.05222531 0.12294792 -0.04968597
000070 cc fa 72 3d f2 3e f4 3d fa 23 be bd 6e d9 e2 3d
       0.05932121 0.11926068 -0.09284206 0.11076628
000080 8e de cf 3d da 43 f3 bd 52 f7 72 bd 66 56 fa 3d
       0.10149871 -0.11878176 -0.059317894 0.122235104
000090 e9 6f c3 bd b0 83 73 3d dc bd 87 bd fe d9 a0 bd
       -0.095428295 0.05945176 -0.0662801 -0.07854079
0000a0 c9 f5 1b 3d 24 4b 8c bd 73 f0 d7 3d 00 13 0f ba
       0.038076196 -0.068502694 0.10543909 -0.00054578483
0000b0 1b 17 3e bd 37 d8 ea bd 7e 7f 99 bd 42 59 87 3d
       -0.046408754 -0.11467021 -0.0749502 0.066088215
0000c0 7c e9 22 3d f3 23 ee bc 8f 43 1e bd 70 cb 31 3d
       0.03977345 -0.029069876 -0.038638648 0.043406904
0000d0 b1 0f 0b bd a5 26 a7 bd 11 b8 82 3d 76 b9 93 bd
       -0.03395051 -0.08161668 0.06382764 -0.07213108
0000e0 9a f5 e8 bd c8 9b 37 bb b4 75 5a bd cc 07 ed bd
       -0.1137497 -0.0028016437 -0.053334907 -0.11573753
0000f0 98 69 bb bc 88 2a d3 bc cc d4 0c bd 69 b6 d4 bd
       -0.0228775 -0.025777116 -0.034382626 -0.103863545
000100 20 59 08 bc 6e a9 fe bd 63 a6 b6 3c ca 28 6a bb
       -0.00832203 -0.1243466 0.022296136 -0.0035729879
000110 a4 75 7e bd 48 8e bd bc 6f a2 e4 bd ed 28 ea 3d
       -0.06212391 -0.023139134 -0.11163794 0.11433587
000120 66 11 22 bd 16 d6 bd 3d c4 90 8a bd 79 5a a4 3c
       -0.039567374 0.09269349 -0.06765893 0.020062672
000130 f2 49 97 bc d6 2a 8f 3d a7 42 be 3d 27 cb 14 be
       -0.018467877 0.06990592 0.09290057 -0.14530621
000140 84 f3 35 3d 00 d4 46 3a 4c 59 91 bd fc f9 d0 bd
       0.044421688 0.0007584691 -0.0709711 -0.10203931
000150 20 8f e4 bd 70 6d 26 3c 90 d6 e8 bc dc 50 ab 3d
       -0.111601114 0.010157928 -0.028422624 0.08365032
000160 6c cc 21 bd 89 ee 7c 3d 48 02 42 3d e8 8e e8 bc
       -0.039501593 0.061750922 0.047365457 -0.028388456
000170 00 61 7a bc 69 12 a6 bd e3 18 a4 3c ed 17 18 be
       -0.015281916 -0.0810898 0.020031398 -0.14852877
000180 86 5a d5 bd d4 ce 6c 3d a1 b8 05 bd ec d1 23 bd
       -0.104176566 0.057814434 -0.03264678 -0.03999512
000190 dc 73 5e bd 40 48 c4 bc 7d c1 a4 bd 8e 4c 21 bd
       -0.05430971 -0.023960233 -0.080447175 -0.03937965
0001a0 73 c8 cd bb 7c db 03 be e1 03 1d be 6c 7b 34 bd
       -0.006279999 -0.12876695 -0.15333511 -0.044063017
0001b0 87 97 d7 bd 87 97 c3 bd c7 fa 44 bb d8 42 a9 bd
       -0.105269484 -0.09550386 -0.0030056702 -0.082647026
0001c0 70 58 bc bc 4e cd 83 bd 88 f2 83 3d 6a 8d f2 bd
       -0.022991389 -0.06435643 0.064427435 -0.11843379
0001d0 6e 41 a7 3c b4 ba cf bc c7 29 8a bd 00 22 f8 bd
       0.020416941 -0.025357582 -0.0674625 -0.1211586
0001e0 f4 42 eb bd 1f de 55 bd e0 d9 48 bd b0 9d 3d 3d
       -0.1148738 -0.052213784 -0.049035907 0.04629296
0001f0 b6 4e c9 bd 93 cb 70 3d c7 5f 2a bd 40 46 17 3c
       -0.09829466 0.058787894 -0.041595247 0.0092330575
000200 8a 97 f2 3d 42 11 9b 3d 3d 97 93 3d b5 66 0c be
       0.1184531 0.07571651 0.07206581 -0.13711055
000210 c0 12 2a bc 40 6e bf bb 67 63 18 be ee 50 dd bc
       -0.010380447 -0.0058420002 -0.14881669 -0.02701613
000220 c5 10 48 3d 14 ab e9 3d 9d 5f 96 3d 84 55 4b 3c
       0.048844118 0.11409584 0.073424555 0.012410525
000230 92 7f 85 bc c0 57 a3 3b 0b 34 e2 bd 2b 1a 23 be
       -0.016296182 0.004984826 -0.11045083 -0.15927951
000240 1d 7c 09 3c cc d6 69 bd 5c af d0 bd 2a a9 e2 bd
       0.008391407 -0.057089612 -0.10189697 -0.11067422
000250 38 40 d5 bc 18 f4 b4 3d 30 71 e0 3d 30 10 f4 3d
       -0.026031598 0.0883562 0.10959089 0.1191715
000260 51 43 27 bc 95 16 18 be 04 2b c1 3d 70 03 72 bc
       -0.010208921 -0.14852364 0.09432033 -0.014771327
000270 b0 b3 a9 3c 53 b6 c2 3d 28 d1 e3 bc 09 1b c8 bd
       0.020715564 0.09507432 -0.027809694 -0.097707815
000280 90 3a 16 be 29 86 40 3c ef 04 27 3d 00 bb f1 3c
       -0.14670777 0.011750736 0.04077619 0.029508114
000290 9d 28 9e 3d ec 0e c1 bd 62 ff 8e 3d b4 c2 b8 bd
       0.0772259 -0.09426674 0.06982304 -0.09021512
0002a0 a6 14 c2 3a 23 37 4d bc 86 e5 c7 3d 40 60 3f 3b
       0.0014807179 -0.012525353 0.09760575 0.0029201657
0002b0 bd b6 c1 bd 50 fd 1f be 38 db 0f 3d 10 7a fe bd
       -0.09458683 -0.15623975 0.035121173 -0.12425625
0002c0 10 3e 38 bd c2 e6 c4 3d 81 00 7e bd 4c 54 3d 3d
       -0.044981062 0.09614326 -0.0620122 0.04622297
0002d0 dd d1 2b be f3 68 ee bd 5e ce a5 3d 0d 4e 4f bd
       -0.16779275 -0.11641111 0.08096002 -0.050611544
0002e0 28 f8 cd bd 0c 97 3a bd 1c 9c ee bd 55 b0 63 bc
       -0.10057098 -0.045554206 -0.11650869 -0.013897021
0002f0 00 b5 6a 3a 51 cf 0d bd bd e1 e4 bd 4a ec 88 3d
       0.00089533627 -0.03462154 -0.11175869 0.066856936
000300 5a fa 91 bd a1 75 62 3d 2e 9c 13 be 5a 69 a2 3d
       -0.07127829 0.05528796 -0.14415047 0.079302505
000310 00 31 c5 bc b0 6a 1d bd 6b 84 ca 3c 5e fb f0 3d
       -0.024071217 -0.038431823 0.024721345 0.117666945
000320 85 81 12 3d 94 a9 e0 3d ec c0 e5 bc 37 18 b3 bc
       0.03576805 0.109698445 -0.028046094 -0.021862132
000330 e5 d1 1e be ba e6 d4 bd 1f 51 f9 bd 28 e0 ca 3c
       -0.15509756 -0.1039557 -0.12173676 0.02476509
000340 a3 f1 62 bd 68 18 da bc 29 6d 49 bd 68 d8 62 bd
       -0.055406224 -0.026622966 -0.04917637 -0.055382162
000350 71 8a f5 bd 72 00 e4 bd 70 98 61 3d 4e f4 af bd
       -0.11989296 -0.111328974 0.055077016 -0.08591519
000360 a7 f2 79 3d ab 7e 75 bd 5c d5 58 bd 94 02 1c bd
       0.061022427 -0.059935253 -0.05293785 -0.038088396
000370 08 12 a6 bd 3e 1a 9e bd f0 ed cf 3d 06 f5 1a be
       -0.08108908 -0.07719849 0.10152805 -0.15132532
000380 b4 c7 8c bd 5e db 0f be e5 6d 06 3e f8 2d 19 3d
       -0.06874028 -0.14048526 0.13127859 0.037397355
000390 27 a9 b8 bd 30 76 6d bc 81 a5 54 3d 81 98 11 be
       -0.09016638 -0.01449351 0.05191565 -0.14218332
0003a0 63 cb 55 bc 6e 66 1b be 40 13 2e 3d 34 d3 63 bd
       -0.013048979 -0.15175793 0.042498827 -0.05562134
0003b0 74 87 00 3d 8f ad ab bd 1b 98 23 be 2f 24 6f 3d
       0.03137918 -0.08382713 -0.15975992 0.058384117
0003c0 22 3e ee 3d 55 08 cb bd 96 4e 90 3c 8e 9b f7 3d
       0.11632945 -0.099136986 0.017615598 0.120902166
0003d0 be 45 51 3c 4b 2b d0 bd 1a 93 9c 3c 61 53 59 bc
       0.0127729755 -0.101645075 0.019113112 -0.013264508
0003e0 da 73 b3 bd b1 3a a7 bd 40 a1 2c bd 38 43 81 bb
       -0.08762331 -0.08165491 -0.042145967 -0.0039447807
0003f0 4a 07 a6 3d e0 7e 93 3b 5d 47 a9 bd 10 6f 30 3d
       0.08106859 0.0045012087 -0.082655646 0.043074667

fc2.bias f4 [4]
000000 67 ce fd bc e4 5b 99 bd 3c fb a5 3d d7 51 f3 bd
       -0.03098221 -0.0748823 0.0810456 -0.11880844
