1/ludo_q_network.pth (torch, 11592 bytes, 4 tensors)

fc1.weight f4 [64, 32]
00000000: c02a febc bc40 cd3d e7cb 0c3d 1a0d 2bbe
00000010: 6844 af3d db35 0dbe 7a84 0ebe 05ca 1ebe
00000020: e1e3 263e f90d f4bd 264b 18be f9ec 173e
00000030: 20b4 ed3d 378a fcbc 80d3 b23d cb0a 073e
00000040: 439d 17be ea64 acbd d8f0 873c 174e 583d
00000050: d597 3cbd e8d4 ee3d 3df1 26be f0c5 4fbc
00000060: a8a2 1cbe 4bea 6d3d 5938 b8bd 401c cfbc
00000070: 6867 b63d 2f6f 26be 9892 a73c d855 fcbc
00000080: e82f d03c 1175 19bd 4d33 523d f54b f83c
00000090: 85c4 123c 3aee 07be f195 95bd f452 1dbe
000000a0: df9b 063e 6468 67bd 5f41 e43d 58c4 48bd
000000b0: 6467 b33d 12a9 57bd 7629 af3d d598 cdbd
000000c0: d436 9bbd d392 ccb9 aba1 e73d 7e20 ddbc
000000d0: 637f 10bd 5d65 083e 54d0 993d de87 293e
000000e0: 5add 68bd d605 373d 9190 2ebe b20b eabd
000000f0: 6cb3 93bd dc3a 793d 720c b23d 040d 99bd
00000100: 98b6 8f3d d0e2 11be 11b1 d13d d6a5 cb3d
00000110: 80b5 483d 12b3 523d d6d0 dcbd 9c6f 2f3e
00000120: b4c1 9d3d 0b19 5dbd 793b eebd 12a7 d2bd
00000130: 3f9b c13c 0a37 9e3d 8c90 033e 9a28 07be
00000140: fe32 21bd 4ea7 1cbe 28b4 763c f1aa ebbd
00000150: 8a22 113e 54bd 1f3e 67a9 afbd e739 163e
00000160: f832 0f3e d4fb 213e d6ac d5bd f4ef 813d
00000170: 830f d33c 7128 0fbe b120 7cbc bf77 7a3d
00000180: bc05 02be 62dd afbd d401 f4bd a771 9d3c
00000190: cd06 efbd 7114 06be e27f 1a3e dc25 a4bd
000001a0: 1dc7 223e 194f f33d 4c76 023e b2c3 32be
000001b0: 81c8 803d 8762 173e 957b 5cbd 63f2 24bd
000001c0: 7a6f aa3c 4b84 343e f265 9c3d 9b7a 60bd
000001d0: f659 d93d b775 49bd 8a53 dabb 2e85 b93d
000001e0: ed3a 473d 1d4c 3d3d 903e 0ebd 068a a6bd
000001f0: 43a6 ad3c 9893 00be ef48 3bbd ebd1 ea3c
00000200: f4c4 1d3e f484 3e3d e7f1 b2bd 4801 0ebe
00000210: fce3 5abd 43fa 13be ccc6 87bd eabb 9ebd
00000220: db1c 8b3d 9d95 b7bd 3bd2 af3d ac97 e23c
00000230: 76f1 013e 564b 01bd 2fda 883d 491d 123c
00000240: b955 dcbd 3bb9 933d 0dac 87bb d1b6 97bd
00000250: fe3a c8bd 8fd9 f6bd 27bf 87bd 0d27 b5bb
00000260: 38a4 02be 5ce9 c33c cf68 b13d 8734 e93d
00000270: a302 2abe 6c59 8b3c a738 e73d 466c cdbd
00000280: 7ad1 0cbe 4d61 94bd 14a3 603d e633 cb3d
00000290: e76a 303e aa83 e1bd c0ce 603b ad9b 29be
000002a0: 9cbb 9bbd 6027 ae3b a4f9 d5bd 5e2a 973d
000002b0: b19e 1f3e aead c2bd 17d8 b0bd ebd9 0b3e
000002c0: 670e cfbd f918 17be 585f b83c 2638 cabd
000002d0: e0c9 0cbe 0e8a 12be 50c3 a6bc e0b0 e1bd
000002e0: 20e1 a8bd d8e8 2cbe b209 24be c2bc c1bd
000002f0: 186a 14be 90b2 1bbd c6a0 c43d 1396 173e
00000300: c3e5 eabd 3ce8 1b3e f1f0 96bd f49f 72bd
00000310: 4c53 2dbd d3d9 b83d be3d bc3d 5059 193d
00000320: 323a da3d ef11 fc3d 059c cb3d c084 b53c
00000330: 7a98 173e 86c6 15be 4849 073d ccaa 103d
00000340: 7010 1e3e d823 173d d2de 29be 0f8f f13d
00000350: 4ea4 073e 6105 be3b bff5 16be a7be 33be
00000360: a00b 15be 90c0 2fbb ea31 32bd ab2b 063e
00000370: 861a 2b3e 7250 20be 53ac e03d 0786 f6bb
00000380: 8477 c7bd 0284 a2bd 444a fbbc 0bed 8bbc
00000390: d0b8 b8bd a7fd 04bc aeea 6a3d 4c3e 773d
000003a0: 3461 073d fe57 633d 8fad dc3d 66af 0dbe
000003b0: 6813 f5bd a0da 42bb fa0f c8bd e019 253e
000003c0: 7b28 aa3d 2398 c13d 47e6 d63c 6712 a93d
000003d0: cbb7 f73d a0a8 3bbe 2468 80bd 3dab 36be
000003e0: 3f61 9c3d 19dc 013c 483d 273e bba4 08be
000003f0: b74b bc3d 5039 acbd 3e60 00bd cc8e 253e
-0.031026244 0.10022113 0.034374144 -0.16704217 0.08557969 -0.13790075 -0.13917723 -0.15506752
0.16297866 -0.119167276 -0.14872417 0.14836492 0.11606622 -0.030827625 0.08731747 0.13187711
-0.14806084 -0.08417685 0.016594335 0.052808847 -0.046043236 0.116617024 -0.16302963 -0.012681469
-0.15296423 0.058084767 -0.089951225 -0.025282025 0.08906442 -0.1625335 0.020455644 -0.030802652
0.025413468 -0.03746516 0.051318455 0.030309657 0.008957987 -0.1327447 -0.0730399 -0.15363675
0.13145398 -0.05649604 0.11145281 -0.049015373 0.087599546 -0.052651472 0.0855283 -0.10038916
-0.07578817 -0.00039019305 0.113101326 -0.026993033 -0.035277735 0.13319917 0.075104386 0.16555735
-0.056851722 0.0446833 -0.17047335 -0.11428012 -0.072119564 0.06084715 0.0869378 -0.07473186
0.07017249 -0.14246678 0.10238851 0.0994374 0.049001217 0.051440306 -0.1078202 0.1713242
0.077029616 -0.05397896 -0.11632437 -0.102857724 0.023633597 0.077253416 0.12848109 -0.13199082
-0.03935527 -0.15298197 0.015057601 -0.11507214 0.14173332 0.15599567 -0.08577233 0.14670525
0.13984287 0.15818721 -0.104333565 0.063445956 0.025764233 -0.13980271 -0.015388654 0.061149355
-0.126975 -0.08587147 -0.11914411 0.019219233 -0.11671219 -0.13093735 0.15087846 -0.080150336
0.15896268 0.11880321 0.12740439 -0.17457464 0.06288243 0.14783679 -0.053828795 -0.04027022
0.02080511 0.17628591 0.07636632 -0.054804426 0.10612862 -0.049184527 -0.0066627907 0.09058605
0.04864018 0.046215165 -0.034727633 -0.08131795 0.021197444 -0.12556303 -0.04572385 0.02866455
0.15407163 0.046513513 -0.087375455 -0.13867676 -0.05344008 -0.14450936 -0.06629714 -0.077506855
0.06792613 -0.08964083 0.0858502 0.027660213 0.12689766 -0.031565987 0.0668224 0.008918115
-0.10758538 0.07213064 -0.004140383 -0.07407916 -0.09776877 -0.12053215 -0.06628256 -0.005528337
-0.12757957 0.023914985 0.08662569 0.11386972 -0.16602568 0.017010413 0.112901025 -0.10030417
-0.13751784 -0.07245121 0.054843023 0.09922008 0.1722828 -0.11011441 0.003430292 -0.16563292
-0.07604143 0.0053147525 -0.10448006 0.07381128 0.1558788 -0.09505783 -0.08634966 0.13657348
-0.10110169 -0.1475562 0.022506401 -0.09873991 -0.13748884 -0.14310476 -0.020356804 -0.11020064
-0.08246064 -0.16885698 -0.16019323 -0.09459831 -0.14493597 -0.038012087 0.096009776 0.14803343
-0.11469605 0.15225309 -0.07370175 -0.059234574 -0.042315766 0.09025922 0.09191464 0.03743869
0.10655631 0.12308108 0.09941868 0.022158027 0.14804259 -0.14626512 0.03302887 0.035319135
0.15435958 0.036899418 -0.16588905 0.117948644 0.13246271 0.005798981 -0.14742182 -0.17553197
-0.14555216 -0.0026817657 -0.043504633 0.13102596 0.16709337 -0.15655687 0.10970368 -0.0075233015
-0.09739593 -0.07935335 -0.030675061 -0.017080804 -0.09019625 -0.008117116 0.057352714 0.060362145
0.033051684 0.055503838 0.10775291 -0.1383644 -0.11966592 -0.0029732361 -0.09768672 0.16123152
0.08308502 0.09452846 0.026232852 0.08255463 0.120956026 -0.18326044 -0.06269863 -0.1783876
0.07635736 0.0079260105 0.1633197 -0.1334409 0.09194129 -0.08409369 -0.031341784 0.16167754

fc1.bias f4 [64]
00000000: 53eb 90bd 7c1e 163e 3c1f f8bd 2e43 b5bd
00000010: 1fac 05be 7071 ccbc 0699 5a3d 7b4f 0e3e
00000020: 666e 01be 82dd b53d f9a9 cbbd d700 2d3d
00000030: 88f2 543d d00c 933c 5565 8dbd 94d9 943d
00000040: e3a0 e8bc c01c 35bb 4b5c 16be 47af 5c3c
00000050: 9323 313c 7c0c afbd 348c 2d3d 0249 983d
00000060: 1783 67bd aa31 513d c98e 053e e2c0 e83d
00000070: e06b 143c 680f b23c 5c9c 03be ef9a a8bd
00000080: be9c 313e 467e 6f3d 2208 81bd 9002 523d
00000090: 1b02 0f3e d63c 33be 2c94 013e 65d0 28bc
000000a0: ea6f 2ebd a918 c23d a748 0c3e 905b e33c
000000b0: 60c5 563b b657 2dbe 2378 ee3d 6668 a83d
000000c0: 96ca a23d 21d5 21bc da26 f43d cc2a 4bbd
000000d0: 10ad 53bc c0f2 043e 4c33 babd 1a51 213e
000000e0: 6161 2d3e f39d c23d 00c9 643b 6b9a 8cbd
000000f0: 5460 2bbe 6cb7 9dbd a979 23be 9324 ecbd
-0.070761345 0.14660066 -0.121153325 -0.08850704 -0.1305394 -0.024956435 0.05336859 0.13897507
-0.1263977 0.0888014 -0.09944529 0.04223713 0.05198911 0.017950445 -0.06904093 0.07268062
-0.02839703 -0.0027635545 -0.14683644 0.013469524 0.010811704 -0.08547303 0.042370036 0.074358
-0.0565215 0.051072754 0.1304275 0.113649145 0.0090589225 0.021735862 -0.12852615 -0.08232676
0.17344949 0.058470033 -0.06300379 0.051271975 0.13965647 -0.17503676 0.1265418 -0.010303591
-0.0425872 0.0947736 0.1369959 0.027753621 0.0032771453 -0.1692799 0.11644008 0.082230374
0.079487965 -0.009877474 0.11921473 -0.04960136 -0.012919679 0.12983227 -0.09091815 0.15753594
0.16931678 0.09502783 0.0034909844 -0.068653904 -0.16735965 -0.077010006 -0.15964378 -0.115304135

fc2.weight f4 [4, 64]
00000000: f00b de3d b7e3 b13d ff8b 8e3c 90bd d93d
00000010: 1a59 913d a471 ff3d f24a e63c 5858 b73d
00000020: 712e 13bd a4d5 ddbd db3e d0bd 3566 c93c
00000030: 8087 d3ba 6803 e03c 4921 ec3d 9dc1 d7bc
00000040: 6425 a7bd 2ec8 8e3d e08d 673d 7826 cb3d
00000050: 6e8e 413c 008b abbc 342f b93d 40f9 b0bc
00000060: beb0 b1bd c4a2 a1bd 1ecc fb3d 8483 4bbd
00000070: ccfa 723d 4e88 ea3d fa23 bebd e808 fd3d
00000080: 9e00 f73d 4a76 dabd a908 c3bd 6656 fa3d
00000090: e96f c3bd b083 733d 5ffb 87bd 72ad 67bd
000000a0: c9f5 1b3d 937b 30bd fe82 ba3d 0013 0fba
000000b0: f26c 0ebd 7c77 b5bd ae0f 7bbd b038 da3d
000000c0: 7ce9 223d 0839 29bd cad9 cfbc 70cb 313d
000000d0: e0c2 26bd 8504 bfbd 6abc 183d 79b9 56bd
000000e0: 9af5 e8bd 778c 543c b475 5abd fe95 debd
000000f0: 9869 bbbc 882a d3bc 8001 42bc c37f c6bd
00000100: 2059 08bc c4c4 cdbd da49 3c3d 0ca6 963c
00000110: a475 7ebd 488e bdbc fa0a 9cbd ed28 ea3d
00000120: faec ecbc 16d6 bd3d 7061 ccbc ee68 113d
00000130: 2095 d13b d62a 8f3d dac4 eb3d e35f cdbd
00000140: 05e9 ab3d 00d4 463a 8822 19bd fcf9 d0bd
00000150: 208f e4bd 706d 263c 90d6 e8bc dc50 ab3d
00000160: 4902 84bc 7496 d93d 4802 423d e88e e8bc
00000170: 8802 f4bc 534e 18bd 70d7 ef3c 80c7 e9bd
00000180: 158f 9ebd 0f7b c53d 8dcf 393c ecd1 23bd
00000190: 64eb 92bd 4048 c4bc b3e3 46bd 8c31 243c
000001a0: b262 00bb f8ed 9ebd 187c fdbd 6c7b 34bd
000001b0: e0f4 80bd cb43 29bd 3965 0f3d 0540 8cbd
000001c0: 7058 bcbc ac5a 4bbd ea7e de3d 6a8d f2bd
000001d0: 1ede a93d b4ba cfbc 640f 04bd a4b2 9ebd
000001e0: f442 ebbd a6d6 0fbc e0d9 48bd 3057 af3d
000001f0: b64e c9bd ec08 9a3d f229 d13b efaf 3b3d
00000200: 8a97 f23d 010d d23d 1160 c73d 2a2a f6bd
00000210: c012 2abc 406e bfbb f724 e5bd ee50 ddbc
00000220: 5fb7 b43d 14ab e93d a8ee e63d 0076 d23c
00000230: c0a2 cd3b c057 a33b 2a11 c1bd 7e38 f0bd
00000240: fc51 203d ccd6 69bd 9f6e 85bd 2aa9 e2bd
00000250: 3840 d5bc 18f4 b43d 3071 e03d 3010 f43d
00000260: a34e f83c 11d7 d6bd 042b c13d 7003 72bc
00000270: b0b3 a93c 6602 d13d 28d1 e3bc 757c 86bd
00000280: 44bf e8bd cb46 373d a4e3 d03d 00bb f13c
00000290: 9d28 9e3d ec0e c1bd 18d2 9e3d 3f81 38bd
000002a0: a614 c23a b4f1 163d 0f95 e43d 4060 3f3b
000002b0: 1021 6cbd 8121 debd a56a 923d 4f7f 9dbd
000002c0: 103e 38bd 6c36 e93d daeb 31bd 4c54 3d3d
000002d0: d0bd b6bd f368 eebd cae8 c83d 28aa 01bc
000002e0: 28f8 cdbd c2ac 9abb 1c9c eebd de76 723c
000002f0: 00b5 6a3a 51cf 0dbd b142 8cbd a58e d33d
00000300: 5afa 91bd c18f a53d 10e5 f3bd 7ab3 d03d
00000310: 0031 c5bc b06a 1dbd 0ff2 993d 5efb f03d
00000320: dca9 943d 94a9 e03d d044 893c 8ee7 0cbc
00000330: 0065 e5bd bae6 d4bd b105 c7bd 7172 a23d
00000340: 5180 8fbc 6818 dabc a380 a83a 68d8 62bd
00000350: 718a f5bd 7200 e4bd 7098 613d 4ef4 afbd
00000360: 47cf b93d 4caf 37bd 5cd5 58bd 9402 1cbd
00000370: 0812 a6bd 14a8 87bd f0ed cf3d 26b7 d7bd
00000380: 42a4 92bc f77b c9bd cdcf d03d f82d 193d
00000390: 27a9 b8bd 3076 6dbc 60d6 8e3d 5ce6 b3bd
000003a0: 63cb 55bc 8350 c1bd 60c5 8f3d 34d3 63bd
000003b0: 8d2c bb3d 3a24 cfbc 916f eebd 3035 dc3d
000003c0: 223e ee3d e2d0 b8bd bcef 563d 8e9b f73d
000003d0: 303f 153d 478d ebbd ac85 223d 5987 233d
000003e0: da73 b3bd ab52 f0bc 40a1 2cbd 5e69 0f3d
000003f0: 4a07 a63d e07e 933b 19db dfbc 3a79 9c3d
0.10842121 0.08686011 0.01740074 0.10631859 0.07097073 0.12472847 0.028111909 0.08952397
-0.03593296 -0.10831764 -0.10168239 0.024584869 -0.0016138405 0.027345374 0.11529786 -0.02633744
-0.081614286 0.06971775 0.056531787 0.09919447 0.011813743 -0.020940304 0.090422064 -0.021603227
-0.08676289 -0.07892373 0.12294792 -0.04968597 0.05932121 0.11451779 -0.09284206 0.12355214
0.120606646 -0.10667093 -0.09523136 0.122235104 -0.095428295 0.05945176 -0.06639742 -0.056561895
0.038076196 -0.0430866 0.09107016 -0.00054578483 -0.034771867 -0.088606805 -0.06129425 0.106553435
0.03977345 -0.041314155 -0.025372405 0.043406904 -0.04071319 -0.09327034 0.03728906 -0.052422974
-0.1137497 0.012972943 -0.053334907 -0.108684525 -0.0228775 -0.025777116 -0.011841178 -0.09692337
-0.00832203 -0.10047296 0.045968868 0.018389724 -0.06212391 -0.023139134 -0.07619281 0.11433587
-0.028921593 0.09269349 -0.024948806 0.03550046 0.006395951 0.06990592 0.11512156 -0.100280546
0.08394054 0.0007584691 -0.037386447 -0.10203931 -0.111601114 0.010157928 -0.028422624 0.08365032
-0.01611437 0.106244 0.047365457 -0.028388456 -0.029786363 -0.03718407 0.029277533 -0.11415005
-0.077421345 0.09642612 0.011340988 -0.03999512 -0.071738034 -0.023960233 -0.048556995 0.0100215785
-0.0019590077 -0.07760233 -0.12377185 -0.044063017 -0.06296706 -0.041324418 0.035008643 -0.06848148
-0.022991389 -0.04964702 0.10864051 -0.11843379 0.082943186 -0.025357582 -0.03224124 -0.07748917
-0.1148738 -0.0087792035 -0.049035907 0.085615516 -0.09829466 0.07521233 0.006383174 0.04582208
0.1184531 0.102563865 0.0973512 -0.12019761 -0.010380447 -0.0058420002 -0.11188691 -0.02701613
0.08824038 0.11409584 0.11275989 0.025691032 0.006275505 0.004984826 -0.09427102 -0.11729525
0.039140686 -0.057089612 -0.0651524 -0.11067422 -0.026031598 0.0883562 0.10959089 0.1191715
0.030310934 -0.104902394 0.09432033 -0.014771327 0.020715564 0.102055356 -0.027809694 -0.06566707
-0.11364606 0.044745248 0.10199669 0.029508114 0.0772259 -0.09426674 0.07754916 -0.045045134
0.0014807179 0.0368516 0.11161243 0.0029201657 -0.05764872 -0.10846234 0.07149247 -0.07690298
-0.044981062 0.11387333 -0.043437816 0.04622297 -0.089229226 -0.11641111 0.09810026 -0.007914104
-0.10057098 -0.0047203014 -0.11650869 0.014798848 0.00089533627 -0.03462154 -0.06848658 0.10329942
-0.07127829 0.080840595 -0.119089246 0.101904824 -0.024071217 -0.038431823 0.07516872 0.117666945
0.072589606 0.109698445 0.016756445 -0.008600129 -0.11200905 -0.1039557 -0.097178824 0.07931984
-0.01751724 -0.026622966 0.001285572 -0.055382162 -0.11989296 -0.111328974 0.055077016 -0.08591519
0.09072738 -0.04484491 -0.05293785 -0.038088396 -0.08108908 -0.06623855 0.10152805 -0.1053298
-0.01790059 -0.098380975 0.10195885 0.037397355 -0.09016638 -0.01449351 0.069744825 -0.08784172
-0.013048979 -0.094391845 0.07020068 -0.05562134 0.09139357 -0.025285829 -0.11642373 0.10752332
0.11632945 -0.09024216 0.052474722 0.120902166 0.036437213 -0.11501556 0.03967826 0.039924
-0.08762331 -0.029336294 -0.042145967 0.035012595 0.08106859 0.0045012087 -0.027326154 0.0764031

fc2.bias f4 [4]
00000000: d473 b9bc cb1b 2abd c470 df3d 4223 a1bd
-0.022638239 -0.04153041 0.1091018 -0.07868053
