1/y_ludo_q_network.pth (torch, 11608 bytes, 4 tensors)

fc1.weight f4 [64, 32]
-0.031026244 0.10022113 0.034374144 -0.16704217 0.08557969 -0.13790075 -0.13917723 -0.15506752
0.16297866 -0.119167276 -0.14872417 0.14836492 0.11606622 -0.030827625 0.08731747 0.13187711
-0.14806084 -0.08417685 0.016594335 0.052808847 -0.046043236 0.116617024 -0.16302963 -0.012681469
-0.15296423 0.058084767 -0.089951225 -0.025282025 0.08906442 -0.1625335 0.020455644 -0.030802652
-0.015127056 -0.052323136 0.016356727 -0.0073921727 -0.021525173 -0.16322775 -0.1035231 -0.18411979
0.1077166 -0.09709186 0.080969594 -0.07949859 0.057116322 -0.083134696 0.055045098 -0.13087223
-0.105564676 -0.033054575 0.085875995 -0.055250354 -0.06576089 0.10271594 0.044621244 0.13507432
-0.08573159 0.016032746 -0.19625719 -0.14050396 -0.10260277 0.030363992 0.05645461 -0.105215065
0.05343991 -0.16957876 0.06518987 0.07383976 0.022216197 0.024655296 -0.13197017 0.14526226
0.050242655 -0.06770965 -0.13972141 -0.13120005 -0.0031514422 0.050468314 0.101529084 -0.15877557
-0.06692372 -0.18014078 -0.010617064 -0.1310667 0.11494861 0.12921092 -0.11260341 0.119923525
0.12771404 0.13108875 -0.13379574 0.03744285 -0.0060100234 -0.16579488 -0.042173702 0.03436434
-0.16278812 -0.09369988 -0.14008205 -0.0046891435 -0.14044258 -0.1546677 0.1271481 -0.10388079
0.14172392 0.07609137 0.103673935 -0.198305 0.039151914 0.124106474 -0.07755926 -0.064000666
-0.0033379323 0.15224434 0.052635815 -0.0785349 0.08239816 -0.07291498 -0.030393302 0.066855595
0.014709925 0.02309986 -0.05584871 -0.102870725 -0.0025330589 -0.14929338 -0.06945432 0.00493404
0.15407163 0.046513513 -0.087375455 -0.13867676 -0.05344008 -0.14450936 -0.06629714 -0.077506855
0.06792613 -0.08964083 0.0858502 0.027660213 0.12689766 -0.031565987 0.0668224 0.008918115
-0.10758538 0.07213064 -0.004140383 -0.07407916 -0.09776877 -0.12053215 -0.06628256 -0.005528337
-0.12757957 0.023914985 0.08662569 0.11386972 -0.16602568 0.017010413 0.112901025 -0.10030417
-0.13751784 -0.07245121 0.054843023 0.09922008 0.1722828 -0.11011441 0.003430292 -0.16563292
-0.07604143 0.0053147525 -0.10448006 0.07381128 0.1558788 -0.09505783 -0.08634966 0.13657348
-0.10110169 -0.1475562 0.022506401 -0.09873991 -0.13748884 -0.14310476 -0.020356804 -0.11020064
-0.08246064 -0.16885698 -0.16019323 -0.09459831 -0.14493597 -0.038012087 0.096009776 0.14803343
-0.09810114 0.15679033 -0.032440975 -0.030549878 -0.025431436 0.107143536 0.10824289 0.053992733
0.12458699 0.14413796 0.11607502 0.038296327 0.16492687 -0.12938096 0.04932282 0.052248865
0.1591679 0.051245056 -0.15526745 0.13267154 0.15051253 0.022813974 -0.12889157 -0.15758522
-0.12431607 0.008758709 -0.036640175 0.1611109 0.19122909 -0.13938084 0.12679549 0.0093694655
-0.10975865 -0.09171607 -0.043037787 -0.02944356 -0.10255898 -0.02047987 0.04498999 0.04799942
0.020688929 0.04314111 0.095390186 -0.15072726 -0.13202876 -0.015336001 -0.11004945 0.14886868
0.07072229 0.08216573 0.013870096 0.070191905 0.1085933 -0.19562328 -0.07506136 -0.19075045
0.06399463 -0.0044367528 0.15095687 -0.14580373 0.07957856 -0.096456416 -0.04370451 0.14931469
00000000: c02a febc bc40 cd3d e7cb 0c3d 1a0d 2bbe
00000010: 6844 af3d db35 0dbe 7a84 0ebe 05ca 1ebe
00000020: e1e3 263e f90d f4bd 264b 18be f9ec 173e
00000030: 20b4 ed3d 378a fcbc 80d3 b23d cb0a 073e
00000040: 439d 17be ea64 acbd d8f0 873c 174e 583d
00000050: d597 3cbd e8d4 ee3d 3df1 26be f0c5 4fbc
00000060: a8a2 1cbe 4bea 6d3d 5938 b8bd 401c cfbc
00000070: 6867 b63d 2f6f 26be 9892 a73c d855 fcbc
00000080: 79d7 77bc c950 56bd 8bfe 853c 0a3a f2bb
00000090: 8f55 b0bc 2d25 27be eb03 d4bd e689 3cbe
000000a0: 859a dc3d 19d8 c6bd 63d3 a53d 28d0 a2bd
000000b0: cef2 693d 8642 aabd f876 613d 5f03 06be
000000c0: 4b32 d8bd 3c64 07bd c1df af3d 324e 62bd
000000d0: a5ad 86bd bc5c d23d c4c4 363d ec50 0a3e
000000e0: 0b94 afbd 1b57 833c a5f7 48be 45e0 0fbe
000000f0: 6721 d2bd e8bd f83c f33c 673d ff7a d7bd
00000100: cfe3 5a3d 0ea6 2dbe 4482 853d 4d39 973d
00000110: befe b53c e7f9 c93c 3023 07be a1bf 143e
00000120: 3ecb 4d3d 5bab 8abd 2113 0fbe 4e59 06be
00000130: 6d88 4ebb ddb7 4e3d 7bee cf3d 1096 22be
00000140: 4e0f 89bd d376 38be 32f3 2dbc 5936 06be
00000150: 2d6a eb3d de4f 043e 9e9c e6bd 779a f53d
00000160: 78c7 023e 213c 063e c001 09be ad5d 193d
00000170: bbef c4bb 22c6 29be 55be 2cbd 9fc1 0c3d
00000180: eeb1 26be b9e5 bfbd ab71 0fbe 63a7 99bb
00000190: 2ed0 0fbe 3661 1ebe 1d33 023e 74bf d4bd
000001a0: 1320 113e cbd5 9b3d 0053 d43d 7710 4bbe
000001b0: c25d 203d 892b fe3d 64d7 9ebd c812 83bd
000001c0: 36c1 5abb f1e5 1b3e a798 573d e8d6 a0bd
000001d0: 5ec0 a83d 7354 95bd 60fb f8bc 96eb 883d
000001e0: e601 713c eb3b bd3c 9ec1 64bd e3ad d2bd
000001f0: ad01 26bb 5de0 18be 113e 8ebd baad a13b
00000200: f4c4 1d3e f484 3e3d e7f1 b2bd 4801 0ebe
00000210: fce3 5abd 43fa 13be ccc6 87bd eabb 9ebd
00000220: db1c 8b3d 9d95 b7bd 3bd2 af3d ac97 e23c
00000230: 76f1 013e 564b 01bd 2fda 883d 491d 123c
00000240: b955 dcbd 3bb9 933d 0dac 87bb d1b6 97bd
00000250: fe3a c8bd 8fd9 f6bd 27bf 87bd 0d27 b5bb
00000260: 38a4 02be 5ce9 c33c cf68 b13d 8734 e93d
00000270: a302 2abe 6c59 8b3c a738 e73d 466c cdbd
00000280: 7ad1 0cbe 4d61 94bd 14a3 603d e633 cb3d
00000290: e76a 303e aa83 e1bd c0ce 603b ad9b 29be
000002a0: 9cbb 9bbd 6027 ae3b a4f9 d5bd 5e2a 973d
000002b0: b19e 1f3e aead c2bd 17d8 b0bd ebd9 0b3e
000002c0: 670e cfbd f918 17be 585f b83c 2638 cabd
000002d0: e0c9 0cbe 0e8a 12be 50c3 a6bc e0b0 e1bd
000002e0: 20e1 a8bd d8e8 2cbe b209 24be c2bc c1bd
000002f0: 186a 14be 90b2 1bbd c6a0 c43d 1396 173e
00000300: 40e9 c8bd a58d 203e d4e0 04bd bd43 fabc
00000310: 9655 d0bc 126e db3d 73ae dd3d 7c27 5d3d
00000320: 7727 ff3d e798 133e bdb8 ed3d 9cdc 1c3d
00000330: 97e2 283e 717c 04be ba06 4a3d e802 563d
00000340: e9fc 223e 56e6 513d 6efe 1ebe 0cdb 073e
00000350: f51f 1a3e 5fe4 ba3c 27fc 03be 055e 21be
00000360: 6c99 febd b080 0f3c 0214 16bd 41fa 243e
00000370: 8fd1 433e dab9 0ebe add6 013e 6382 193c
00000380: 25c9 e0bd a3d5 bbbd 6448 30bd 9f33 f1bc
00000390: 710a d2bd 66c5 a7bc 6c47 383d 0a9b 443d
000003a0: d47b a93c bcb4 303d ee5b c33d 3f58 1abe
000003b0: 8c32 07be da43 7bbc 9b61 e1bd 0871 183e
000003c0: d9d6 903d 8246 a83d 663f 633c c6c0 8f3d
000003d0: 2a66 de3d 7851 48be c5b9 99bd 1654 43be
000003e0: 9e0f 833d 2e62 91bb 7094 1a3e 934d 15be
000003f0: 16fa a23d f18a c5bd 8003 33bd f3e5 183e

fc1.bias f4 [64]
-0.070761345 0.11611746 -0.1479381 -0.1122375 -0.1305394 -0.024956435 0.07025286 0.12661223
-0.13595018 0.0888014 -0.09958607 -0.00022111506 0.05301431 0.00811112 -0.095806286 0.10861893
-0.031005599 -0.0027635545 -0.14739697 0.008343241 0.009143528 -0.08547303 0.042370036 0.074358
-0.06814958 0.03242074 0.1304275 0.113649145 0.0029774145 0.02574952 -0.13275386 -0.08207046
0.16530856 0.07115075 -0.07864583 0.051271975 0.12222817 -0.17503676 0.10921893 0.028827803
-0.08181996 0.1336229 0.1204241 0.027753621 0.020739796 -0.124570526 0.12413501 0.0670313
0.079487965 -0.0047242204 0.108676 -0.04960136 0.0006747893 0.112216264 -0.10895852 0.18754002
0.16931678 0.13146275 0.0034909844 -0.05794323 -0.16735965 -0.0911997 -0.12075691 -0.09853872
00000000: 53eb 90bd fece ed3d 167d 17be c6dc e5bd
00000010: 1fac 05be 7071 ccbc bbe0 8f3d a3a6 013e
00000020: 8636 0bbe 82dd b53d c8f3 cbbd 1fdb 67b9
00000030: 8825 593d 81e4 043c 1636 c4bd 9a73 de3d
00000040: 74ff fdbc c01c 35bb 3bef 16be 17b2 083c
00000050: bcce 153c 7c0c afbd 348c 2d3d 0249 983d
00000060: 0292 8bbd 9ccb 043d c98e 053e e2c0 e83d
00000070: ba20 433b a8f0 d23c a1f0 07be 8f14 a8bd
00000080: a646 293e 7cb7 913d 1111 a1bd 9002 523d
00000090: c352 fa3d d63c 33be 2dae df3d 4928 ec3c
000000a0: 3991 a7bd 71d4 083e e9a0 f63d 905b e33c
000000b0: 81e6 a93c d51e ffbd 7f3a fe3d b547 893d
000000c0: 96ca a23d a2cd 9abb 8691 de3d cc2a 4bbd
000000d0: 58e4 303a a4d1 e53d a525 dfbd 7e0a 403e
000000e0: 6161 2d3e 2c9e 063e 00c9 643b e155 6dbd
000000f0: 5460 2bbe e9c6 babd 664f f7bd abce c9bd

fc2.weight f4 [4, 64]
0.10842121 0.05720308 -0.010685262 0.076923735 0.07097073 0.12472847 -0.014137712 0.07914547
-0.05760911 -0.10831764 -0.13265406 0.00886431 -0.02186013 0.017506046 0.08813741 -0.074702
-0.1124752 0.06971775 0.01089796 0.09406819 0.005728272 -0.020940304 0.090422064 -0.021603227
-0.08855426 -0.05222531 0.12294792 -0.04968597 0.05932121 0.075105086 -0.086184315 0.08307639
0.073708214 -0.14381987 -0.059317894 0.122235104 -0.095428295 0.05945176 -0.0662801 -0.10404073
0.038076196 -0.09478388 0.060802687 -0.00054578483 -0.071510255 -0.14042887 -0.096516155 0.06907447
0.03977345 -0.043782517 -0.051474802 0.043406904 -0.040930998 -0.08161668 0.024935141 -0.09819509
-0.1137497 -0.02941146 -0.053334907 -0.13839705 -0.0228775 -0.025777116 -0.06025675 -0.11302067
-0.00832203 -0.1243466 -0.0004747855 -0.004251393 -0.06212391 -0.023139134 -0.10648283 0.11235165
-0.033185624 0.09269349 -0.05486959 0.020062672 -0.0027291405 0.06990592 0.08909439 -0.13644336
0.055547785 0.0007584691 -0.06378294 -0.10203931 -0.111601114 0.010157928 -0.028422624 0.08365032
-0.039501593 0.061750922 0.047365457 -0.028388456 -0.015281916 -0.079526275 0.029277533 -0.14045277
-0.101185925 0.06586715 -0.03264678 -0.03999512 -0.05430971 -0.023960233 -0.080447175 -0.031751804
-0.006279999 -0.12200274 -0.15438566 -0.044063017 -0.09365441 -0.0881531 0.0033256179 -0.06968106
-0.022991389 -0.06253158 0.079568364 -0.11843379 0.03325982 -0.025357582 -0.04771639 -0.113868356
-0.1148738 -0.043825842 -0.049035907 0.056944087 -0.09829466 0.058787894 -0.034516852 0.017759386
0.1184531 0.07571651 0.060678117 -0.13711055 -0.010380447 -0.0058420002 -0.15046602 -0.02701613
0.05411811 0.11409584 0.07565012 0.012410525 -0.023118678 0.004984826 -0.118637376 -0.16038184
0.007528087 -0.057089612 -0.10467685 -0.11067422 -0.026031598 0.0883562 0.10959089 0.1191715
-0.010208921 -0.14852364 0.09432033 -0.014771327 0.020715564 0.0838112 -0.017626202 -0.09948995
-0.1502034 0.0101203555 0.04077619 0.029508114 0.0772259 -0.09426674 0.06982304 -0.09191569
0.0014807179 -0.014655746 0.083566874 0.0029201657 -0.09541858 -0.15767391 0.03351368 -0.118916884
-0.044981062 0.09614326 -0.06024283 0.04622297 -0.15662168 -0.11641111 0.081698805 -0.05237148
-0.10057098 -0.0468164 -0.11650869 -0.013858503 0.00089533627 -0.03462154 -0.11299838 0.07721263
-0.07127829 0.05528796 -0.14506368 0.079302505 -0.024071217 -0.038431823 0.037080564 0.117666945
0.043640446 0.109698445 -0.010390255 -0.021862132 -0.13310291 -0.1039557 -0.115412496 0.039054677
-0.04000482 -0.026622966 -0.033217907 -0.055382162 -0.11989296 -0.111328974 0.055077016 -0.08591519
0.061022427 -0.059935253 -0.05293785 -0.038088396 -0.08108908 -0.07719849 0.12190728 -0.1380311
-0.060465083 -0.12657435 0.13127859 0.037397355 -0.09016638 -0.01449351 0.05191565 -0.12735151
-0.013048979 -0.13949814 0.049628723 -0.05562134 0.04727965 -0.06890029 -0.14665402 0.07578426
0.11632945 -0.1096264 0.032118402 0.120902166 0.028316544 -0.101645075 0.04062465 0.00064340635
-0.08762331 -0.066779405 -0.042145967 0.011369439 0.08106859 0.0045012087 -0.06859308 0.057289742
00000000: f00b de3d c74d 6a3d 3d11 2fbc 318a 9d3d
00000010: 1a59 913d a471 ff3d dda1 67bc 0517 a23d
00000020: 88f7 6bbd a4d5 ddbd 77d6 07be 9c3b 113c
00000030: 0414 b3bc d768 8f3c 6381 b43d 5dfd 98bd
00000040: 6659 e6bd 2ec8 8e3d 5b8d 323c d3a6 c03d
00000050: 3ab4 bb3b 008b abbc 342f b93d 40f9 b0bc
00000060: f05b b5bd 35ea 55bd 1ecc fb3d 8483 4bbd
00000070: ccfa 723d b2d0 993d 6781 b0bd f423 aa3d
00000080: 55f4 963d 8445 13be 52f7 72bd 6656 fa3d
00000090: e96f c3bd b083 733d dcbd 87bd 4e13 d5bd
000000a0: c9f5 1b3d 0d1e c2bd 3d0c 793d 0013 0fba
000000b0: f873 92bd 96cc 0fbe 43aa c5bd ea76 8d3d
000000c0: 7ce9 223d 4c55 33bd 3ed7 52bd 70cb 313d
000000d0: 43a7 27bd a526 a7bd c844 cc3c 821a c9bd
000000e0: 9af5 e8bd 4df0 f0bc b475 5abd f5b7 0dbe
000000f0: 9869 bbbc 882a d3bc c8cf 76bd 6277 e7bd
00000100: 2059 08bc 6ea9 febd a2ec f8b9 454f 8bbb
00000110: a475 7ebd 488e bdbc ac13 dabd 9f18 e63d
00000120: a6ed 07bd 16d6 bd3d efbe 60bd 795a a43c
00000130: 61db 32bb d62a 8f3d 1f77 b63d cfb7 0bbe
00000140: 1386 633d 00d4 463a a1a0 82bd fcf9 d0bd
00000150: 208f e4bd 706d 263c 90d6 e8bc dc50 ab3d
00000160: 6ccc 21bd 89ee 7c3d 4802 423d e88e e8bc
00000170: 0061 7abc acde a2bd 70d7 ef3c dad2 0fbe
00000180: 913a cfbd 5be5 863d a1b8 05bd ecd1 23bd
00000190: dc73 5ebd 4048 c4bc 7dc1 a4bd 2e0e 02bd
000001a0: 73c8 cdbb 93dc f9bd 4617 1ebe 6c7b 34bd
000001b0: e2cd bfbd 9d89 b4bd 9cf2 593b f2b4 8ebd
000001c0: 7058 bcbc 8f10 80bd bdf4 a23d 6a8d f2bd
000001d0: 733b 083d b4ba cfbc 4372 43bd d033 e9bd
000001e0: f442 ebbd ba82 33bd e0d9 48bd 343e 693d
000001f0: b64e c9bd 93cb 703d 8b61 0dbd 227c 913c
00000200: 8a97 f23d 4211 9b3d 9e89 783d b566 0cbe
00000210: c012 2abc 406e bfbb c413 1abe ee50 ddbc
00000220: f4aa 5d3d 14ab e93d 73ee 9a3d 8455 4b3c
00000230: 6263 bdbc c057 a33b 27f8 f2bd 233b 24be
00000240: 2cae f63b ccd6 69bd d160 d6bd 2aa9 e2bd
00000250: 3840 d5bc 18f4 b43d 3071 e03d 3010 f43d
00000260: 5143 27bc 9516 18be 042b c13d 7003 72bc
00000270: b0b3 a93c 35a5 ab3d d364 90bc 63c1 cbbd
00000280: ecce 19be d9cf 253c ef04 273d 00bb f13c
00000290: 9d28 9e3d ec0e c1bd 62ff 8e3d 4b3e bcbd
000002a0: a614 c23a a71e 70bc 1c25 ab3d 4060 3f3b
000002b0: d16a c3bd 4575 21be a445 093d b28a f3bd
000002c0: 103e 38bd c2e6 c43d 30c1 76bd 4c54 3d3d
000002d0: 6f61 20be f368 eebd b451 a73d 7a83 56bd
000002e0: 28f8 cdbd 8ec2 3fbd 1c9c eebd c60e 63bc
000002f0: 00b5 6a3a 51cf 0dbd b26b e7bd a821 9e3d
00000300: 5afa 91bd a175 623d 938b 14be 5a69 a23d
00000310: 0031 c5bc b06a 1dbd cae1 173d 5efb f03d
00000320: 53c0 323d 94a9 e03d e33b 2abc 3718 b3bc
00000330: 214c 08be bae6 d4bd 635d ecbd ccf7 1f3d
00000340: 18dc 23bd 6818 dabc 800f 08bd 68d8 62bd
00000350: 718a f5bd 7200 e4bd 7098 613d 4ef4 afbd
00000360: a7f2 793d ab7e 75bd 5cd5 58bd 9402 1cbd
00000370: 0812 a6bd 3e1a 9ebd 86aa f93d 0658 0dbe
00000380: 3caa 77bd b59c 01be e56d 063e f82d 193d
00000390: 27a9 b8bd 3076 6dbc 81a5 543d 6f68 02be
000003a0: 63cb 55bc 9ad8 0ebe 7d47 4b3d 34d3 63bd
000003b0: 4ea8 413d 981b 8dbd 792c 16be c734 9b3d
000003c0: 223e ee3d ce83 e0bd 968e 033d 8e9b f73d
000003d0: 19f8 e73c 4b2b d0bd 0866 263d 45aa 283a
000003e0: da73 b3bd a4c3 88bd 40a1 2cbd e246 3a3c
000003f0: 4a07 a63d e07e 933b 877a 8cbd a6a8 6a3d

fc2.bias f4 [4]
-0.05822186 -0.067949474 0.080220774 -0.10617684
00000000: 0c7a 6ebd 1829 8bbd ca4a a43d 3e73 d9bd
