src/g_ludo_q_network.pth (torch, 11608 bytes, 4 tensors)

fc1.weight f4 [64, 32]
00000000: c02a febc bc40 cd3d e7cb 0c3d 1a0d 2bbe
00000010: 6844 af3d db35 0dbe 7a84 0ebe 05ca 1ebe
00000020: e1e3 263e f90d f4bd 264b 18be f9ec 173e
00000030: 20b4 ed3d 378a fcbc 80d3 b23d cb0a 073e
00000040: 439d 17be ea64 acbd d8f0 873c 174e 583d
00000050: d597 3cbd e8d4 ee3d 3df1 26be f0c5 4fbc
00000060: a8a2 1cbe 4bea 6d3d 5938 b8bd 401c cfbc
00000070: 6867 b63d 2f6f 26be 9892 a73c d855 fcbc
00000080: 79d7 77bc c950 56bd 8bfe 853c 0a3a f2bb
00000090: 8f55 b0bc 2d25 27be eb03 d4bd e689 3cbe
000000a0: 859a dc3d 19d8 c6bd 63d3 a53d 28d0 a2bd
000000b0: cef2 693d 8642 aabd f876 613d 5f03 06be
000000c0: 4b32 d8bd 3c64 07bd c1df af3d 324e 62bd
000000d0: a5ad 86bd bc5c d23d c4c4 363d ec50 0a3e
000000e0: 0b94 afbd 1b57 833c a5f7 48be 45e0 0fbe
000000f0: 6721 d2bd e8bd f83c f33c 673d ff7a d7bd
00000100: f3da 963d 5bad 19be 7c76 b73d ff36 ba3d
00000110: fd40 2d3d 8f41 353d 430f ebbd bd14 283e
00000120: aba8 8f3d a7d0 43bd d696 fbbd bad3 f5bd
00000130: 213b 893c fa1e 903d 0909 f93d 8334 0ebe
00000140: 8d98 40bd 4615 24be 1f53 0d3c 7f43 f9bd
00000150: 6951 093e 1cea 183e 1dea b0bd a1a5 0f3e
00000160: 0529 173e ae9d 1a3e 1a2e ddbd f109 6d3d
00000170: 7da0 633c 9564 15be 7e70 b6bc b247 5e3d
00000180: eeb1 26be b9e5 bfbd ab71 0fbe 63a7 99bb
00000190: 2ed0 0fbe 3661 1ebe 1d33 023e 74bf d4bd
000001a0: 1320 113e cbd5 9b3d 0053 d43d 7710 4bbe
000001b0: c25d 203d 892b fe3d 64d7 9ebd c812 83bd
000001c0: 36c1 5abb f1e5 1b3e a798 573d e8d6 a0bd
000001d0: 5ec0 a83d 7354 95bd 60fb f8bc 96eb 883d
000001e0: e601 713c eb3b bd3c 9ec1 64bd e3ad d2bd
000001f0: ad01 26bb 5de0 18be 113e 8ebd baad a13b
00000200: f4c4 1d3e f484 3e3d e7f1 b2bd 4801 0ebe
00000210: fce3 5abd 43fa 13be ccc6 87bd eabb 9ebd
00000220: db1c 8b3d 9d95 b7bd 3bd2 af3d ac97 e23c
00000230: 76f1 013e 564b 01bd 2fda 883d 491d 123c
00000240: b955 dcbd 3bb9 933d 0dac 87bb d1b6 97bd
00000250: fe3a c8bd 8fd9 f6bd 27bf 87bd 0d27 b5bb
00000260: 38a4 02be 5ce9 c33c cf68 b13d 8734 e93d
00000270: a302 2abe 6c59 8b3c a738 e73d 466c cdbd
00000280: 7ad1 0cbe 4d61 94bd 14a3 603d e633 cb3d
00000290: e76a 303e aa83 e1bd c0ce 603b ad9b 29be
000002a0: 9cbb 9bbd 6027 ae3b a4f9 d5bd 5e2a 973d
000002b0: b19e 1f3e aead c2bd 17d8 b0bd ebd9 0b3e
000002c0: 670e cfbd f918 17be 585f b83c 2638 cabd
000002d0: e0c9 0cbe 0e8a 12be 50c3 a6bc e0b0 e1bd
000002e0: 20e1 a8bd d8e8 2cbe b209 24be c2bc c1bd
000002f0: 186a 14be 90b2 1bbd c6a0 c43d 1396 173e
00000300: eead ddbd fa3f 153e b5a8 41bd c2a9 1fbd
00000310: 06bb 11bd 097f c63d 646f ca3d 24a8 303d
00000320: 6e57 ea3d e630 093e a50d d83d 614f 243d
00000330: 977a 1e3e 76e4 0ebe 93d1 223d 1d33 2c3d
00000340: e894 183e 3246 283d 2f8a 25be a750 063e
00000350: 0e62 103e d78f 4b3c 8881 0ebe 9235 2fbe
00000360: bcb4 09be 0bfe b7ba e011 3dbd 2fdc 123e
00000370: 8f69 393e da21 19be 9170 ee3d 0f16 52ba
00000380: d7b8 dcbd 55c5 b7bd c627 28bd 63f2 e0bc
00000390: 23fa cdbd 2a84 97bc 0a68 403d a8bb 4c3d
000003a0: 10bd b93c 5ad5 383d 3c6c c73d 1750 18be
000003b0: 642a 05be 61c1 5abc 4d51 ddbd 3079 1a3e
000003c0: 27e7 943d d056 ac3d efe0 813c 14d1 933d
000003d0: 7876 e23d 5049 46be 77a9 95bd ee4b 41be
000003e0: ec1f 873d 79ba 20bb 989c 1c3e 6b45 13be
000003f0: 640a a73d a37a c1bd e2e2 2abd 1bee 1a3e
-0.031026244 0.10022113 0.034374144 -0.16704217 0.08557969 -0.13790075 -0.13917723 -0.15506752
0.16297866 -0.119167276 -0.14872417 0.14836492 0.11606622 -0.030827625 0.08731747 0.13187711
-0.14806084 -0.08417685 0.016594335 0.052808847 -0.046043236 0.116617024 -0.16302963 -0.012681469
-0.15296423 0.058084767 -0.089951225 -0.025282025 0.08906442 -0.1625335 0.020455644 -0.030802652
-0.015127056 -0.052323136 0.016356727 -0.0073921727 -0.021525173 -0.16322775 -0.1035231 -0.18411979
0.1077166 -0.09709186 0.080969594 -0.07949859 0.057116322 -0.083134696 0.055045098 -0.13087223
-0.105564676 -0.033054575 0.085875995 -0.055250354 -0.06576089 0.10271594 0.044621244 0.13507432
-0.08573159 0.016032746 -0.19625719 -0.14050396 -0.10260277 0.030363992 0.05645461 -0.105215065
0.0736598 -0.15007536 0.08958146 0.09092521 0.042298306 0.044251975 -0.1147752 0.16414161
0.07014593 -0.04780641 -0.12284629 -0.12003274 0.016751828 0.07037158 0.121599264 -0.13887219
-0.047020484 -0.1602374 0.008625775 -0.12171077 0.13409962 0.14933056 -0.086384036 0.14028026
0.14761741 0.15099213 -0.10799809 0.05787081 0.013893244 -0.1458915 -0.022270437 0.054267593
-0.16278812 -0.09369988 -0.14008205 -0.0046891435 -0.14044258 -0.1546677 0.1271481 -0.10388079
0.14172392 0.07609137 0.103673935 -0.198305 0.039151914 0.124106474 -0.07755926 -0.064000666
-0.0033379323 0.15224434 0.052635815 -0.0785349 0.08239816 -0.07291498 -0.030393302 0.066855595
0.014709925 0.02309986 -0.05584871 -0.102870725 -0.0025330589 -0.14929338 -0.06945432 0.00493404
0.15407163 0.046513513 -0.087375455 -0.13867676 -0.05344008 -0.14450936 -0.06629714 -0.077506855
0.06792613 -0.08964083 0.0858502 0.027660213 0.12689766 -0.031565987 0.0668224 0.008918115
-0.10758538 0.07213064 -0.004140383 -0.07407916 -0.09776877 -0.12053215 -0.06628256 -0.005528337
-0.12757957 0.023914985 0.08662569 0.11386972 -0.16602568 0.017010413 0.112901025 -0.10030417
-0.13751784 -0.07245121 0.054843023 0.09922008 0.1722828 -0.11011441 0.003430292 -0.16563292
-0.07604143 0.0053147525 -0.10448006 0.07381128 0.1558788 -0.09505783 -0.08634966 0.13657348
-0.10110169 -0.1475562 0.022506401 -0.09873991 -0.13748884 -0.14310476 -0.020356804 -0.11020064
-0.08246064 -0.16885698 -0.16019323 -0.09459831 -0.14493597 -0.038012087 0.096009776 0.14803343
-0.1082419 0.14575186 -0.047280032 -0.038980253 -0.03557875 0.09692199 0.09884527 0.0431291
0.11442457 0.1339756 0.105494775 0.040114764 0.15476452 -0.13954338 0.039750647 0.042040933
0.14900553 0.04108257 -0.16165994 0.13116704 0.14099905 0.012424431 -0.139166 -0.17110279
-0.13447851 -0.0014037503 -0.046159625 0.14341806 0.18106674 -0.1495432 0.11642564 -0.0008014151
-0.10777443 -0.08973185 -0.041053556 -0.027459329 -0.100574754 -0.018495638 0.04697422 0.04998365
0.02267316 0.045125343 0.09737441 -0.14874302 -0.13004452 -0.013351769 -0.108065225 0.15085292
0.07270651 0.08414996 0.015854327 0.07217613 0.11057752 -0.19363904 -0.073077135 -0.18876621
0.065978855 -0.002452521 0.15294111 -0.1438195 0.08156279 -0.09447219 -0.04172028 0.15129893

fc1.bias f4 [64]
00000000: 53eb 90bd fece ed3d 8a1b 03be c6dc e5bd
00000010: 1fac 05be 7071 ccbc 4e21 763d cbae 033e
00000020: 2af7 03be 82dd b53d 0767 e3bd 1fdb 67b9
00000030: 714f 173d 81e4 043c 8a3a cbbd 8beb c03d
00000040: a091 1abd c01c 35bb 5472 23be 17b2 083c
00000050: bcce 153c 7c0c afbd 348c 2d3d 0249 983d
00000060: 0292 8bbd 9ccb 043d c98e 053e e2c0 e83d
00000070: ba20 433b e974 d43c 7a9f 0abe 5e37 c5bd
00000080: 60a7 203e e540 673d 1111 a1bd 9002 523d
00000090: c352 fa3d d63c 33be 2dae df3d 7b4a 423b
000000a0: 3991 a7bd bc25 d93d 0061 e93d 905b e33c
000000b0: 79d6 e63b 522c 14be e6aa c23d 9bc9 a23d
000000c0: 96ca a23d d419 75bc 5bdf e03d cc2a 4bbd
000000d0: 4a61 04ba a4d1 e53d 2d3d b6bd 8a0b 303e
000000e0: 6161 2d3e 481e dc3d 00c9 643b 8876 8dbd
000000f0: 5460 2bbe e9c6 babd bd74 12be 44ce c3bd
-0.070761345 0.11611746 -0.12803474 -0.1122375 -0.1305394 -0.024956435 0.060090356 0.12859647
-0.12887254 0.0888014 -0.11103635 -0.00022111506 0.036940996 0.00811112 -0.09923275 0.09419926
-0.037736535 -0.0027635545 -0.15961581 0.008343241 0.009143528 -0.08547303 0.042370036 0.074358
-0.06814958 0.03242074 0.1304275 0.113649145 0.0029774145 0.025934653 -0.13537398 -0.09629701
0.15688848 0.056458373 -0.07864583 0.051271975 0.12222817 -0.17503676 0.10921893 0.0029646445
-0.08181996 0.106029004 0.113954544 0.027753621 0.00704461 -0.14470032 0.095052525 0.079486094
0.079487965 -0.014959771 0.10980102 -0.04960136 -0.00050498976 0.112216264 -0.08898387 0.17191902
0.16931678 0.10747963 0.0034909844 -0.06907374 -0.16735965 -0.0911997 -0.14302345 -0.095608264

fc2.weight f4 [4, 64]
00000000: f00b de3d c74d 6a3d 4622 bb3a 318a 9d3d
00000010: 1a59 913d a471 ff3d 4a7f a5bb 0517 a23d
00000020: 0d43 2fbd a4d5 ddbd 2d3c 00be 9c3b 113c
00000030: 4346 afbc d768 8f3c 1c20 c03d e2c8 7fbd
00000040: 1caf cabd 2ec8 8e3d 73c1 533c d3a6 c03d
00000050: 3ab4 bb3b 008b abbc 342f b93d 40f9 b0bc
00000060: f05b b5bd 35ea 55bd 1ecc fb3d 8483 4bbd
00000070: ccfa 723d b2d0 993d fa23 bebd b49f c33d
00000080: b0bf a13d da0e 04be 52f7 72bd 6656 fa3d
00000090: e96f c3bd b083 733d dcbd 87bd 2639 bdbd
000000a0: c9f5 1b3d b354 a7bd 3d0c 793d 0013 0fba
000000b0: df9b 7dbd 033e 05be d9f0 b5bd a2c7 b53d
000000c0: 7ce9 223d 4c55 33bd 05cc 21bd 70cb 313d
000000d0: 6d34 0abd a526 a7bd ae3e 393d cf1e b2bd
000000e0: 9af5 e8bd 19bd 82bc b475 5abd 0c67 00be
000000f0: 9869 bbbc 882a d3bc 8c15 48bd d126 c8bd
00000100: 2059 08bc 6ea9 febd 0e03 a43c 454f 8bbb
00000110: a475 7ebd 488e bdbc 5c6c c6bd ed28 ea3d
00000120: c772 e2bc 16d6 bd3d 8d1c 66bd 795a a43c
00000130: 0c99 4dbc d62a 8f3d b643 b43d a122 00be
00000140: f16a 883d 00d4 463a df4a 7cbd fcf9 d0bd
00000150: 208f e4bd 706d 263c 90d6 e8bc dc50 ab3d
00000160: 6ccc 21bd 89ee 7c3d 4802 423d e88e e8bc
00000170: 0061 7abc 0edb a8bd 70d7 ef3c 39a9 04be
00000180: 6da9 c6bd 52b1 9f3d a1b8 05bd ecd1 23bd
00000190: dc73 5ebd 4048 c4bc 7dc1 a4bd 54ff b7bc
000001a0: 73c8 cdbb 5374 e2bd 7036 19be 6c7b 34bd
000001b0: a1b4 abbd 97b6 9fbd ba0c ec3b 2a2f 9abd
000001c0: 7058 bcbc 4b85 89bd bc6f af3d 6a8d f2bd
000001d0: 3fb4 113d b4ba cfbc 5826 15bd 99fd d3bd
000001e0: f442 ebbd 3896 01bd e0d9 48bd d541 8c3d
000001f0: b64e c9bd 93cb 703d 7b2a d0bc 9fe8 143d
00000200: 8a97 f23d 4211 9b3d 0741 a63d b566 0cbe
00000210: c012 2abc 406e bfbb be9d 15be ee50 ddbc
00000220: afd9 723d 14ab e93d 1f8d 813d 8455 4b3c
00000230: 7398 afbc c057 a33b 85e7 fdbd ffea 1fbe
00000240: 7ac8 613c ccd6 69bd 863a d1bd 2aa9 e2bd
00000250: 3840 d5bc 18f4 b43d 3071 e03d 3010 f43d
00000260: 5143 27bc 9516 18be 042b c13d 7003 72bc
00000270: b0b3 a93c 35a5 ab3d 0267 8fbc ef49 c1bd
00000280: c71e 14be d39f 8a3c ef04 273d 00bb f13c
00000290: 9d28 9e3d ec0e c1bd 62ff 8e3d 3a57 b1bd
000002a0: a614 c23a 8701 0bbc 1c25 ab3d 4060 3f3b
000002b0: 956d bdbd b8d1 1cbe 5c4f 243d 17d6 debd
000002c0: 103e 38bd c2e6 c43d 90b8 60bd 4c54 3d3d
000002d0: 59d2 1cbe f368 eebd be47 af3d 20a0 41bd
000002e0: 28f8 cdbd 6260 2bbd 1c9c eebd 7cf1 16bc
000002f0: 00b5 6a3a 51cf 0dbd 23fa debd d351 a93d
00000300: 5afa 91bd a175 623d c57e 98bd 5a69 a23d
00000310: 0031 c5bc b06a 1dbd 85cc 6d3d 5efb f03d
00000320: ed17 983d 94a9 e03d a005 b9b9 3718 b3bc
00000330: 0799 01be bae6 d4bd 4c57 cebd 17d4 6c3d
00000340: 6731 c5bc 6818 dabc 1a4a a1bc 68d8 62bd
00000350: 718a f5bd 7200 e4bd 7098 613d 4ef4 afbd
00000360: a7f2 793d ab7e 75bd 5cd5 58bd 9402 1cbd
00000370: 0812 a6bd 3e1a 9ebd 984f f43d 49c7 f2bd
00000380: 4ee8 14bd 0942 ddbd e56d 063e f82d 193d
00000390: 27a9 b8bd 3076 6dbc 81a5 543d 7c62 e2bd
000003a0: 63cb 55bc 7d84 f6bd 4013 2e3d 34d3 63bd
000003b0: 9eb9 873d b48a 52bd 61a4 07be f7ae d63d
000003c0: 223e ee3d 4258 bfbd 8cb7 6e3d 8e9b f73d
000003d0: 4ae8 493d 4b2b d0bd 1519 593d a943 a63c
000003e0: da73 b3bd 5331 4bbd 40a1 2cbd b44d ec3c
000003f0: 4a07 a63d e07e 933b b074 57bd 0a73 9f3d
0.10842121 0.05720308 0.0014277182 0.076923735 0.07097073 0.12472847 -0.0050505744 0.07914547
-0.042788554 -0.10831764 -0.12522955 0.00886431 -0.021395808 0.017506046 0.093811244 -0.062447436
-0.09896681 0.06971775 0.01292454 0.09406819 0.005728272 -0.020940304 0.090422064 -0.021603227
-0.08855426 -0.05222531 0.12294792 -0.04968597 0.05932121 0.075105086 -0.09284206 0.09551945
0.078978896 -0.1289629 -0.059317894 0.122235104 -0.095428295 0.05945176 -0.0662801 -0.09239416
0.038076196 -0.08170452 0.060802687 -0.00054578483 -0.06191623 -0.13011937 -0.08883829 0.088759676
0.03977345 -0.043782517 -0.03950121 0.043406904 -0.033741403 -0.08161668 0.04522579 -0.086972825
-0.1137497 -0.01595931 -0.053334907 -0.1253931 -0.0228775 -0.025777116 -0.048848674 -0.09773029
-0.00832203 -0.1243466 0.020020988 -0.004251393 -0.06212391 -0.023139134 -0.09688637 0.11433587
-0.02764262 0.09269349 -0.056179572 0.020062672 -0.012548696 0.06990592 0.08801977 -0.1251321
0.066610225 0.0007584691 -0.06159484 -0.10203931 -0.111601114 0.010157928 -0.028422624 0.08365032
-0.039501593 0.061750922 0.047365457 -0.028388456 -0.015281916 -0.08244906 0.029277533 -0.12955178
-0.09700284 0.07797493 -0.03264678 -0.03999512 -0.05430971 -0.023960233 -0.080447175 -0.022460617
-0.006279999 -0.11057343 -0.14962173 -0.044063017 -0.083840616 -0.07798498 0.0072036656 -0.07528527
-0.022991389 -0.06714877 0.085662335 -0.11843379 0.035572287 -0.025357582 -0.03641352 -0.10351104
-0.1148738 -0.0316374 -0.049035907 0.06848494 -0.09829466 0.058787894 -0.025410881 0.036354657
0.1184531 0.07571651 0.08117872 -0.13711055 -0.010380447 -0.0058420002 -0.14610955 -0.02701613
0.05928963 0.11409584 0.06325745 0.012410525 -0.021434998 0.004984826 -0.123976745 -0.15616988
0.0137807075 -0.057089612 -0.102162406 -0.11067422 -0.026031598 0.0883562 0.10959089 0.1191715
-0.010208921 -0.14852364 0.09432033 -0.014771327 0.020715564 0.0838112 -0.017505173 -0.0943793
-0.14464866 0.016921913 0.04077619 0.029508114 0.0772259 -0.09426674 0.06982304 -0.08659215
0.0014807179 -0.008484251 0.083566874 0.0029201657 -0.09249417 -0.15314376 0.040114745 -0.10880678
-0.044981062 0.09614326 -0.054863513 0.04622297 -0.15314616 -0.11641111 0.085586056 -0.047271848
-0.10057098 -0.041839965 -0.11650869 -0.009212848 0.00089533627 -0.03462154 -0.108875535 0.0826756
-0.07127829 0.05528796 -0.07446054 0.079302505 -0.024071217 -0.038431823 0.058056373 0.117666945
0.074264385 0.109698445 -0.0003529014 -0.021862132 -0.12656032 -0.1039557 -0.10075244 0.057819452
-0.024071408 -0.026622966 -0.019688655 -0.055382162 -0.11989296 -0.111328974 0.055077016 -0.08591519
0.061022427 -0.059935253 -0.05293785 -0.038088396 -0.08108908 -0.07719849 0.11929244 -0.11854417
-0.036354356 -0.10803611 0.13127859 0.037397355 -0.09016638 -0.01449351 0.05191565 -0.11053941
-0.013048979 -0.12036989 0.042498827 -0.05562134 0.066272005 -0.05140181 -0.132463 0.10482591
0.11632945 -0.09343006 0.058280513 0.120902166 0.049293794 -0.101645075 0.053002436 0.020295935
-0.08762331 -0.049607586 -0.042145967 0.028845645 0.08106859 0.0045012087 -0.052601516 0.07785614

fc2.bias f4 [4]
00000000: 7036 2ebd 300b 5cbd 7848 b03d 672e aebd
-0.042532384 -0.053721607 0.08607572 -0.08504944
