src/r_ludo_q_network.pth (torch, 11608 bytes, 4 tensors)

fc1.weight f4 [64, 32]
000000 c0 2a fe bc bc 40 cd 3d e7 cb 0c 3d 1a 0d 2b be
       -0.031026244 0.10022113 0.034374144 -0.16704217
000010 68 44 af 3d db 35 0d be 7a 84 0e be 05 ca 1e be
       0.08557969 -0.13790075 -0.13917723 -0.15506752
000020 e1 e3 26 3e f9 0d f4 bd 26 4b 18 be f9 ec 17 3e
       0.16297866 -0.119167276 -0.14872417 0.14836492
000030 20 b4 ed 3d 37 8a fc bc 80 d3 b2 3d cb 0a 07 3e
       0.11606622 -0.030827625 0.08731747 0.13187711
000040 43 9d 17 be ea 64 ac bd d8 f0 87 3c 17 4e 58 3d
       -0.14806084 -0.08417685 0.016594335 0.052808847
000050 d5 97 3c bd e8 d4 ee 3d 3d f1 26 be f0 c5 4f bc
       -0.046043236 0.116617024 -0.16302963 -0.012681469
000060 a8 a2 1c be 4b ea 6d 3d 59 38 b8 bd 40 1c cf bc
       -0.15296423 0.058084767 -0.089951225 -0.025282025
000070 68 67 b6 3d 2f 6f 26 be 98 92 a7 3c d8 55 fc bc
       0.08906442 -0.1625335 0.020455644 -0.030802652
000080 79 d7 77 bc c9 50 56 bd 8b fe 85 3c 0a 3a f2 bb
       -0.015127056 -0.052323136 0.016356727 -0.0073921727
000090 8f 55 b0 bc 2d 25 27 be eb 03 d4 bd e6 89 3c be
       -0.021525173 -0.16322775 -0.1035231 -0.18411979
0000a0 85 9a dc 3d 19 d8 c6 bd 63 d3 a5 3d 28 d0 a2 bd
       0.1077166 -0.09709186 0.080969594 -0.07949859
0000b0 ce f2 69 3d 86 42 aa bd f8 76 61 3d 5f 03 06 be
       0.057116322 -0.083134696 0.055045098 -0.13087223
0000c0 4b 32 d8 bd 3c 64 07 bd c1 df af 3d 32 4e 62 bd
       -0.105564676 -0.033054575 0.085875995 -0.055250354
0000d0 a5 ad 86 bd bc 5c d2 3d c4 c4 36 3d ec 50 0a 3e
       -0.06576089 0.10271594 0.044621244 0.13507432
0000e0 0b 94 af bd 1b 57 83 3c a5 f7 48 be 45 e0 0f be
       -0.08573159 0.016032746 -0.19625719 -0.14050396
0000f0 67 21 d2 bd e8 bd f8 3c f3 3c 67 3d ff 7a d7 bd
       -0.10260277 0.030363992 0.05645461 -0.105215065
000100 de f4 70 3d 09 11 28 be 73 9d 94 3d 35 c3 a1 3d
       0.058827274 -0.16412748 0.072565936 0.07898561
000110 2b c7 e0 3c 52 c2 f4 3c ed 7c 04 be 31 5b 19 3e
       0.02743872 0.029877815 -0.1293828 0.14976193
000120 71 2f 63 3d 84 f2 7f bd 1b f0 09 be 3b 31 04 be
       0.055465166 -0.06248714 -0.13470499 -0.12909405
000130 d3 ba 07 3b 10 1c 64 3d 19 f8 da 3d 05 3d 1d be
       0.002071072 0.055690825 0.10691852 -0.15355308
000140 68 ba 7c bd c8 1d 33 be 63 c7 e6 bb f5 2e 09 be
       -0.06170121 -0.1749183 -0.0070428117 -0.13396819
000150 43 1c f6 3d ea a8 09 3e ef ce db bd a5 2e 00 3e
       0.12017109 0.13443342 -0.10732829 0.12517793
000160 83 20 08 3e 2c 95 0b 3e 12 fa 03 be cb 8d 2f 3d
       0.13293652 0.13631123 -0.12888363 0.042859834
000170 c1 70 4e ba 16 6d 24 be 20 5a 17 bd d2 25 22 3d
       -0.0007875078 -0.16057238 -0.036951184 0.03958685
000180 ee b1 26 be b9 e5 bf bd ab 71 0f be 63 a7 99 bb
       -0.16278812 -0.09369988 -0.14008205 -0.0046891435
000190 2e d0 0f be 36 61 1e be 1d 33 02 3e 74 bf d4 bd
       -0.14044258 -0.1546677 0.1271481 -0.10388079
0001a0 13 20 11 3e cb d5 9b 3d 00 53 d4 3d 77 10 4b be
       0.14172392 0.07609137 0.103673935 -0.198305
0001b0 c2 5d 20 3d 89 2b fe 3d 64 d7 9e bd c8 12 83 bd
       0.039151914 0.124106474 -0.07755926 -0.064000666
0001c0 36 c1 5a bb f1 e5 1b 3e a7 98 57 3d e8 d6 a0 bd
       -0.0033379323 0.15224434 0.052635815 -0.0785349
0001d0 5e c0 a8 3d 73 54 95 bd 60 fb f8 bc 96 eb 88 3d
       0.08239816 -0.07291498 -0.030393302 0.066855595
0001e0 e6 01 71 3c eb 3b bd 3c 9e c1 64 bd e3 ad d2 bd
       0.014709925 0.02309986 -0.05584871 -0.102870725
0001f0 ad 01 26 bb 5d e0 18 be 11 3e 8e bd ba ad a1 3b
       -0.0025330589 -0.14929338 -0.06945432 0.00493404
000200 f4 c4 1d 3e f4 84 3e 3d e7 f1 b2 bd 48 01 0e be
       0.15407163 0.046513513 -0.087375455 -0.13867676
000210 fc e3 5a bd 43 fa 13 be cc c6 87 bd ea bb 9e bd
       -0.05344008 -0.14450936 -0.06629714 -0.077506855
000220 db 1c 8b 3d 9d 95 b7 bd 3b d2 af 3d ac 97 e2 3c
       0.06792613 -0.08964083 0.0858502 0.027660213
000230 76 f1 01 3e 56 4b 01 bd 2f da 88 3d 49 1d 12 3c
       0.12689766 -0.031565987 0.0668224 0.008918115
000240 b9 55 dc bd 3b b9 93 3d 0d ac 87 bb d1 b6 97 bd
       -0.10758538 0.07213064 -0.004140383 -0.07407916
000250 fe 3a c8 bd 8f d9 f6 bd 27 bf 87 bd 0d 27 b5 bb
       -0.09776877 -0.12053215 -0.06628256 -0.005528337
000260 38 a4 02 be 5c e9 c3 3c cf 68 b1 3d 87 34 e9 3d
       -0.12757957 0.023914985 0.08662569 0.11386972
000270 a3 02 2a be 6c 59 8b 3c a7 38 e7 3d 46 6c cd bd
       -0.16602568 0.017010413 0.112901025 -0.10030417
000280 7a d1 0c be 4d 61 94 bd 14 a3 60 3d e6 33 cb 3d
       -0.13751784 -0.07245121 0.054843023 0.09922008
000290 e7 6a 30 3e aa 83 e1 bd c0 ce 60 3b ad 9b 29 be
       0.1722828 -0.11011441 0.003430292 -0.16563292
0002a0 9c bb 9b bd 60 27 ae 3b a4 f9 d5 bd 5e 2a 97 3d
       -0.07604143 0.0053147525 -0.10448006 0.07381128
0002b0 b1 9e 1f 3e ae ad c2 bd 17 d8 b0 bd eb d9 0b 3e
       0.1558788 -0.09505783 -0.08634966 0.13657348
0002c0 67 0e cf bd f9 18 17 be 58 5f b8 3c 26 38 ca bd
       -0.10110169 -0.1475562 0.022506401 -0.09873991
0002d0 e0 c9 0c be 0e 8a 12 be 50 c3 a6 bc e0 b0 e1 bd
       -0.13748884 -0.14310476 -0.020356804 -0.11020064
0002e0 20 e1 a8 bd d8 e8 2c be b2 09 24 be c2 bc c1 bd
       -0.08246064 -0.16885698 -0.16019323 -0.09459831
0002f0 18 6a 14 be 90 b2 1b bd c6 a0 c4 3d 13 96 17 3e
       -0.14493597 -0.038012087 0.096009776 0.14803343
000300 20 05 c2 bd 4a 7f 20 3e 65 9f 05 bd 12 b1 f4 bc
       -0.09473634 0.15673557 -0.032622714 -0.02986959
000310 4b 14 c5 bc 66 3e de 3d 50 a2 e1 3d 64 22 64 3d
       -0.024057528 0.10851745 0.11017287 0.05569686
000320 e7 fb 00 3e 13 01 15 3e 5c 9b ed 3d 4d ce 2a 3d
       0.12596093 0.14551191 0.11601898 0.04170065
000330 c3 4a 2a 3e 45 14 03 be 5b 12 52 3d e4 73 5b 3d
       0.16630082 -0.12800701 0.051287036 0.05357732
000340 15 65 24 3e f2 86 57 3d 5b ce 17 be 53 2c 0d 3e
       0.16054185 0.05261893 -0.14824812 0.1378644
000350 97 56 1a 3e 99 13 c5 3c 07 4f 04 be fd 4c 21 be
       0.15072094 0.024057196 -0.12920772 -0.15752025
000360 18 c9 fb bd 41 03 26 3c e4 e9 f3 bc 13 4f 24 3e
       -0.12294215 0.010132612 -0.029774614 0.1604579
000370 bb 39 45 3e ad 51 0d be 79 08 03 3e a3 e1 2f 3c
       0.19260304 -0.13800688 0.12796201 0.010734948
000380 d7 b8 dc bd 55 c5 b7 bd c6 27 28 bd 63 f2 e0 bc
       -0.10777443 -0.08973185 -0.041053556 -0.027459329
000390 23 fa cd bd 2a 84 97 bc 0a 68 40 3d a8 bb 4c 3d
       -0.100574754 -0.018495638 0.04697422 0.04998365
0003a0 10 bd b9 3c 5a d5 38 3d 3c 6c c7 3d 17 50 18 be
       0.02267316 0.045125343 0.09737441 -0.14874302
0003b0 64 2a 05 be 61 c1 5a bc 4d 51 dd bd 30 79 1a 3e
       -0.13004452 -0.013351769 -0.108065225 0.15085292
0003c0 27 e7 94 3d d0 56 ac 3d ef e0 81 3c 14 d1 93 3d
       0.07270651 0.08414996 0.015854327 0.07217613
0003d0 78 76 e2 3d 50 49 46 be 77 a9 95 bd ee 4b 41 be
       0.11057752 -0.19363904 -0.073077135 -0.18876621
0003e0 ec 1f 87 3d 79 ba 20 bb 98 9c 1c 3e 6b 45 13 be
       0.065978855 -0.002452521 0.15294111 -0.1438195
0003f0 64 0a a7 3d a3 7a c1 bd e2 e2 2a bd 1b ee 1a 3e
       0.08156279 -0.09447219 -0.04172028 0.15129893

fc1.bias f4 [64]
000000 53 eb 90 bd fe ce ed 3d 0b 24 12 be c6 dc e5 bd
       -0.070761345 0.11611746 -0.14271562 -0.1122375
000010 1f ac 05 be 70 71 cc bc 0f b1 92 3d cb ae 03 3e
       -0.1305394 -0.024956435 0.071626775 0.12859647
000020 af 24 0c be 82 dd b5 3d 60 c5 a9 bd 1f db 67 b9
       -0.13685869 0.0888014 -0.082895994 -0.00022111506
000030 c6 04 91 3d 81 e4 04 3c 65 f8 b8 bd ef f6 e6 3d
       0.070809886 0.00811112 -0.090317525 0.112775676
000040 e2 73 71 bc c0 1c 35 bb 73 09 04 be 17 b2 08 3c
       -0.014737101 -0.0027635545 -0.1289423 0.008343241
000050 bc ce 15 3c 7c 0c af bd 34 8c 2d 3d 02 49 98 3d
       0.009143528 -0.08547303 0.042370036 0.074358
000060 02 92 8b bd 9c cb 04 3d c9 8e 05 3e e2 c0 e8 3d
       -0.06814958 0.03242074 0.1304275 0.113649145
000070 ba 20 43 3b 84 b3 e8 3c 5c 9c 03 be 52 a0 7b bd
       0.0029774145 0.028405912 -0.12852615 -0.06143219
000080 ff e6 3b 3e 3a a8 b2 3d 11 11 a1 bd 90 02 52 3d
       0.18349837 0.08723493 -0.07864583 0.051271975
000090 c3 52 fa 3d d6 3c 33 be 2d ae df 3d fa 40 5a 3d
       0.12222817 -0.17503676 0.10921893 0.053284623
0000a0 39 91 a7 bd 1d 76 1e 3e 00 61 e9 3d 90 5b e3 3c
       -0.08181996 0.15474744 0.113954544 0.027753621
0000b0 e1 91 c4 3c 49 aa d3 bd 5d 0b 15 3e 2c 7c 98 3d
       0.023995342 -0.10335214 0.14555116 0.07445559
0000c0 96 ca a2 3d c7 04 50 bc 51 63 dd 3d cc 2a 4b bd
       0.079487965 -0.0126964515 0.10809959 -0.04960136
0000d0 a9 85 48 bb a4 d1 e5 3d 1c 17 fe bd cc f0 50 3e
       -0.0030597246 0.112216264 -0.124067515 0.20404357
0000e0 61 61 2d 3e 82 e0 1c 3e 00 c9 64 3b 71 70 6d bd
       0.16931678 0.15320018 0.0034909844 -0.05796856
0000f0 54 60 2b be e9 c6 ba bd 92 47 c8 bd be e0 e9 bd
       -0.16735965 -0.0911997 -0.09779276 -0.11419819

fc2.weight f4 [4, 64]
000000 f0 0b de 3d c7 4d 6a 3d 03 28 15 bc 31 8a 9d 3d
       0.10842121 0.05720308 -0.009103778 0.076923735
000010 1a 59 91 3d a4 71 ff 3d 25 2f a1 bc 05 17 a2 3d
       0.07097073 0.12472847 -0.0196758 0.07914547
000020 be 73 81 bd a4 d5 dd bd c6 a8 0d be 9c 3b 11 3c
       -0.06320904 -0.10831764 -0.13833913 0.00886431
000030 f3 63 e1 bc d7 68 8f 3c 29 7d b3 3d 20 8d a4 bd
       -0.02751348 0.017506046 0.08764107 -0.0803473
000040 e2 cf f1 bd 2e c8 8e 3d 20 d9 ae 3b d3 a6 c0 3d
       -0.118072286 0.06971775 0.005335942 0.09406819
000050 3a b4 bb 3b 00 8b ab bc 34 2f b9 3d 40 f9 b0 bc
       0.005728272 -0.020940304 0.090422064 -0.021603227
000060 f0 5b b5 bd 35 ea 55 bd 1e cc fb 3d 84 83 4b bd
       -0.08855426 -0.05222531 0.12294792 -0.04968597
000070 cc fa 72 3d b2 d0 99 3d fa 23 be bd 61 b1 9e 3d
       0.05932121 0.075105086 -0.09284206 0.07748676
000080 1c 79 8b 3d fc 08 19 be 52 f7 72 bd 66 56 fa 3d
       0.06810209 -0.14944834 -0.059317894 0.122235104
000090 e9 6f c3 bd b0 83 73 3d dc bd 87 bd b8 92 e0 bd
       -0.095428295 0.05945176 -0.0662801 -0.109654844
0000a0 c9 f5 1b 3d 72 a4 cd bd 3d 0c 79 3d 00 13 0f ba
       0.038076196 -0.10041131 0.060802687 -0.00054578483
0000b0 d2 0b 9e bd f5 89 15 be 62 15 d1 bd c2 a1 94 3d
       -0.07717098 -0.14603408 -0.102091566 0.07257415
0000c0 7c e9 22 3d c7 ff 2b bd bb 38 6a bd 70 cb 31 3d
       0.03977345 -0.041991975 -0.05718301 0.043406904
0000d0 af b0 3f bd a5 26 a7 bd 8b fe 82 3c 3d a4 d4 bd
       -0.046799358 -0.08161668 0.015990516 -0.103828885
0000e0 9a f5 e8 bd 60 77 0f bd b4 75 5a bd 52 7b 13 be
       -0.1137497 -0.035025954 -0.053334907 -0.14402512
0000f0 98 69 bb bc 88 2a d3 bc f2 e3 86 bd 6c f0 f2 bd
       -0.0228775 -0.025777116 -0.06586446 -0.11862263
000100 20 59 08 bc 6e a9 fe bd ac 2d 70 3b 45 4f 8b bb
       -0.00832203 -0.1243466 0.0036648316 -0.004251393
000110 a4 75 7e bd 48 8e bd bc d6 ba e3 bd ed 28 ea 3d
       -0.06212391 -0.023139134 -0.111196205 0.11433587
000120 fb 6d 3d bd 16 d6 bd 3d f3 48 85 bd 79 5a a4 3c
       -0.046247464 0.09269349 -0.065080546 0.020062672
000130 fa ed 6a bc d6 2a 8f 3d 54 b4 b6 3d b5 b4 12 be
       -0.014338965 0.06990592 0.089211136 -0.14326747
000140 25 93 48 3d 00 d4 46 3a 5c 68 90 bd fc f9 d0 bd
       0.048968453 0.0007584691 -0.07051155 -0.10203931
000150 20 8f e4 bd 70 6d 26 3c 90 d6 e8 bc dc 50 ab 3d
       -0.111601114 0.010157928 -0.028422624 0.08365032
000160 6c cc 21 bd 89 ee 7c 3d 48 02 42 3d e8 8e e8 bc
       -0.039501593 0.061750922 0.047365457 -0.028388456
000170 00 61 7a bc b8 6e a6 bd 70 d7 ef 3c 94 b4 16 be
       -0.015281916 -0.08126587 0.029277533 -0.14717323
000180 30 5a db bd d9 06 74 3d a1 b8 05 bd ec d1 23 bd
       -0.10710561 0.059576843 -0.03264678 -0.03999512
000190 dc 73 5e bd 40 48 c4 bc 7d c1 a4 bd 7f 59 1d bd
       -0.05430971 -0.023960233 -0.080447175 -0.03841543
0001a0 73 c8 cd bb b1 c3 02 be 70 36 19 be 6c 7b 34 bd
       -0.006279999 -0.12769963 -0.14962173 -0.044063017
0001b0 e5 c5 cf bd 12 67 c0 bd 7b 1e fd ba 86 ca ac bd
       -0.10145167 -0.09394659 -0.0019311452 -0.08437066
0001c0 70 58 bc bc 93 19 84 bd 9d d4 93 3d 6a 8d f2 bd
       -0.022991389 -0.064501904 0.07218287 -0.11843379
0001d0 44 ae a1 3c b4 ba cf bc 47 86 53 bd 44 7d f6 bd
       0.019736417 -0.025357582 -0.05164173 -0.12035611
0001e0 f4 42 eb bd 74 f1 4d bd e0 d9 48 bd a9 70 4e 3d
       -0.1148738 -0.050279096 -0.049035907 0.05040041
0001f0 b6 4e c9 bd 93 cb 70 3d 2f c9 26 bd 30 56 68 3c
       -0.09829466 0.058787894 -0.040719207 0.014180705
000200 8a 97 f2 3d 42 11 9b 3d 52 f0 88 3d b5 66 0c be
       0.1184531 0.07571651 0.066864625 -0.13711055
000210 c0 12 2a bc 40 6e bf bb 02 7a 1f be ee 50 dd bc
       -0.010380447 -0.0058420002 -0.15573886 -0.02701613
000220 84 51 3e 3d 14 ab e9 3d 34 91 8e 3d 84 55 4b 3c
       0.046464458 0.11409584 0.06961289 0.012410525
000230 2b 56 b7 bc c0 57 a3 3b bf f7 f0 bd 45 2c 2a be
       -0.022379955 0.004984826 -0.11766004 -0.1661845
000240 54 f4 30 3b cc d6 69 bd 9f e6 de bd 2a a9 e2 bd
       0.00270011 -0.057089612 -0.10883831 -0.11067422
000250 38 40 d5 bc 18 f4 b4 3d 30 71 e0 3d 30 10 f4 3d
       -0.026031598 0.0883562 0.10959089 0.1191715
000260 51 43 27 bc 95 16 18 be 04 2b c1 3d 70 03 72 bc
       -0.010208921 -0.14852364 0.09432033 -0.014771327
000270 b0 b3 a9 3c 35 a5 ab 3d 28 d1 e3 bc 64 a9 d6 bd
       0.020715564 0.0838112 -0.027809694 -0.104815274
000280 61 75 1d be b3 d4 a5 3b ef 04 27 3d 00 bb f1 3c
       -0.15376808 0.005060756 0.04077619 0.029508114
000290 9d 28 9e 3d ec 0e c1 bd 62 ff 8e 3d 63 bb c6 bd
       0.0772259 -0.09426674 0.06982304 -0.0970371
0002a0 a6 14 c2 3a 3f 30 9f bc 1c 25 ab 3d 40 60 3f 3b
       0.0014807179 -0.019432185 0.083566874 0.0029201657
0002b0 f6 48 cf bd 92 ff 26 be bb f4 f1 3c 10 7a fe bd
       -0.10121338 -0.1630843 0.029535642 -0.12425625
0002c0 10 3e 38 bd c2 e6 c4 3d 8e 1a 84 bd 4c 54 3d 3d
       -0.044981062 0.09614326 -0.064503774 0.04622297
0002d0 da 52 25 be f3 68 ee bd 49 1a 89 3d 7b 70 6b bd
       -0.16144887 -0.11641111 0.066944666 -0.057480317
0002e0 28 f8 cd bd cd 2a 57 bd 1c 9c ee bd 30 b6 a1 bc
       -0.10057098 -0.052531052 -0.11650869 -0.019740194
0002f0 00 b5 6a 3a 51 cf 0d bd f6 03 f3 bd 4e 45 90 3d
       0.00089533627 -0.03462154 -0.1186599 0.07044469
000300 5a fa 91 bd a1 75 62 3d a8 c6 17 be 5a 69 a2 3d
       -0.07127829 0.05528796 -0.14821875 0.079302505
000310 00 31 c5 bc b0 6a 1d bd 9e 30 a9 3c 5e fb f0 3d
       -0.024071217 -0.038431823 0.020653065 0.117666945
000320 9c d7 01 3d 94 a9 e0 3d 5d 8a 03 bd 37 18 b3 bc
       0.03169976 0.109698445 -0.032114375 -0.021862132
000330 5f fc 22 be ba e6 d4 bd 0a d3 00 be 5b 8c a9 3c
       -0.15916584 -0.1039557 -0.12580505 0.02069681
000340 8c 9b 73 bd 68 18 da bc 12 17 5a bd 68 d8 62 bd
       -0.059474513 -0.026622966 -0.053244658 -0.055382162
000350 71 8a f5 bd 72 00 e4 bd 70 98 61 3d 4e f4 af bd
       -0.11989296 -0.111328974 0.055077016 -0.08591519
000360 a7 f2 79 3d ab 7e 75 bd 5c d5 58 bd 94 02 1c bd
       0.061022427 -0.059935253 -0.05293785 -0.038088396
000370 08 12 a6 bd 3e 1a 9e bd f0 ed cf 3d 80 1f 1f be
       -0.08108908 -0.07719849 0.10152805 -0.1553936
000380 a9 1c 95 bd d8 05 14 be e5 6d 06 3e f8 2d 19 3d
       -0.07280857 -0.14455354 0.13127859 0.037397355
000390 27 a9 b8 bd 30 76 6d bc 81 a5 54 3d fb c2 15 be
       -0.09016638 -0.01449351 0.05191565 -0.1462516
0003a0 63 cb 55 bc e8 90 1f be 40 13 2e 3d 34 d3 63 bd
       -0.013048979 -0.15582621 0.042498827 -0.05562134
0003b0 17 bb df 3c 84 02 b4 bd 95 c2 27 be 2f 24 6f 3d
       0.027310891 -0.08789542 -0.16382821 0.058384117
0003c0 22 3e ee 3d 55 08 cb bd 8f f5 5d 3c 8e 9b f7 3d
       0.11632945 -0.099136986 0.013547315 0.120902166
0003d0 22 9e 0e 3c 4b 2b d0 bd 99 7e 76 3c 7f fd 8d bc
       0.008704694 -0.101645075 0.015044832 -0.01733279
0003e0 da 73 b3 bd a6 8f af bd 40 a1 2c bd 3a 49 03 bc
       -0.08762331 -0.08572321 -0.042145967 -0.008013064
0003f0 4a 07 a6 3d e0 7e 93 3b 52 9c b1 bd 27 c5 1f 3d
       0.08106859 0.0045012087 -0.08672394 0.03900638

fc2.bias f4 [4]
000000 af b3 82 bd 42 86 96 bd a8 78 97 3d cc a6 fb bd
       -0.06381928 -0.073498264 0.0739606 -0.12287673
